…
__________________________________________________________________________________________________
 Layer (type)                   Output Shape         Param #     Connected to                     
==================================================================================================
 input_1 (InputLayer)           [(None, 128, 128, 3  0           []                               
                                )]                                                                
                                                                                                  
 conv2d (Conv2D)                (None, 64, 64, 24)   672         ['input_1[0][0]']                
                                                                                                  
 batch_normalization (BatchNorm  (None, 64, 64, 24)  96          ['conv2d[0][0]']                 
 alization)                                                                                       
                                                                                                  
 re_lu (ReLU)                   (None, 64, 64, 24)   0           ['batch_normalization[0][0]']    
                                                                                                  
 max_pooling2d (MaxPooling2D)   (None, 32, 32, 24)   0           ['re_lu[0][0]']                  
                                                                                                  
 conv2d_1 (Conv2D)              (None, 32, 32, 50)   650         ['max_pooling2d[0][0]']          
                                                                                                  
 batch_normalization_1 (BatchNo  (None, 32, 32, 50)  200         ['conv2d_1[0][0]']               
 rmalization)                                                                                     
                                                                                                  
 re_lu_1 (ReLU)                 (None, 32, 32, 50)   0           ['batch_normalization_1[0][0]']  
                                                                                                  
 reshape (Reshape)              (None, 32, 32, 25,   0           ['re_lu_1[0][0]']                
                                2)                                                                
                                                                                                  
 permute (Permute)              (None, 32, 32, 2, 2  0           ['reshape[0][0]']                
                                5)                                                                
                                                                                                  
 reshape_1 (Reshape)            (None, 32, 32, 50)   0           ['permute[0][0]']                
                                                                                                  
 depthwise_conv2d (DepthwiseCon  (None, 16, 16, 50)  500         ['reshape_1[0][0]']              
 v2D)                                                                                             
                                                                                                  
 batch_normalization_2 (BatchNo  (None, 16, 16, 50)  200         ['depthwise_conv2d[0][0]']       
 rmalization)                                                                                     
                                                                                                  
 conv2d_2 (Conv2D)              (None, 16, 16, 176)  4576        ['batch_normalization_2[0][0]']  
                                                                                                  
 batch_normalization_3 (BatchNo  (None, 16, 16, 176)  704        ['conv2d_2[0][0]']               
 rmalization)                                                                                     
                                                                                                  
 average_pooling2d (AveragePool  (None, 16, 16, 24)  0           ['max_pooling2d[0][0]']          
 ing2D)                                                                                           
                                                                                                  
 concatenate (Concatenate)      (None, 16, 16, 200)  0           ['batch_normalization_3[0][0]',  
                                                                  'average_pooling2d[0][0]']      
                                                                                                  
 re_lu_2 (ReLU)                 (None, 16, 16, 200)  0           ['concatenate[0][0]']            
                                                                                                  
 conv2d_3 (Conv2D)              (None, 16, 16, 50)   5050        ['re_lu_2[0][0]']                
                                                                                                  
 batch_normalization_4 (BatchNo  (None, 16, 16, 50)  200         ['conv2d_3[0][0]']               
 rmalization)                                                                                     
                                                                                                  
 re_lu_3 (ReLU)                 (None, 16, 16, 50)   0           ['batch_normalization_4[0][0]']  
                                                                                                  
 reshape_2 (Reshape)            (None, 16, 16, 25,   0           ['re_lu_3[0][0]']                
                                2)                                                                
                                                                                                  
 permute_1 (Permute)            (None, 16, 16, 2, 2  0           ['reshape_2[0][0]']              
                                5)                                                                
                                                                                                  
 reshape_3 (Reshape)            (None, 16, 16, 50)   0           ['permute_1[0][0]']              
                                                                                                  
 depthwise_conv2d_1 (DepthwiseC  (None, 16, 16, 50)  500         ['reshape_3[0][0]']              
 onv2D)                                                                                           
                                                                                                  
 batch_normalization_5 (BatchNo  (None, 16, 16, 50)  200         ['depthwise_conv2d_1[0][0]']     
 rmalization)                                                                                     
                                                                                                  
 conv2d_4 (Conv2D)              (None, 16, 16, 200)  5200        ['batch_normalization_5[0][0]']  
                                                                                                  
 batch_normalization_6 (BatchNo  (None, 16, 16, 200)  800        ['conv2d_4[0][0]']               
 rmalization)                                                                                     
                                                                                                  
 add (Add)                      (None, 16, 16, 200)  0           ['batch_normalization_6[0][0]',  
                                                                  're_lu_2[0][0]']                
                                                                                                  
 re_lu_4 (ReLU)                 (None, 16, 16, 200)  0           ['add[0][0]']                    
                                                                                                  
 conv2d_5 (Conv2D)              (None, 16, 16, 50)   5050        ['re_lu_4[0][0]']                
                                                                                                  
 batch_normalization_7 (BatchNo  (None, 16, 16, 50)  200         ['conv2d_5[0][0]']               
 rmalization)                                                                                     
                                                                                                  
 re_lu_5 (ReLU)                 (None, 16, 16, 50)   0           ['batch_normalization_7[0][0]']  
                                                                                                  
 reshape_4 (Reshape)            (None, 16, 16, 25,   0           ['re_lu_5[0][0]']                
                                2)                                                                
                                                                                                  
 permute_2 (Permute)            (None, 16, 16, 2, 2  0           ['reshape_4[0][0]']              
                                5)                                                                
                                                                                                  
 reshape_5 (Reshape)            (None, 16, 16, 50)   0           ['permute_2[0][0]']              
                                                                                                  
 depthwise_conv2d_2 (DepthwiseC  (None, 16, 16, 50)  500         ['reshape_5[0][0]']              
 onv2D)                                                                                           
                                                                                                  
 batch_normalization_8 (BatchNo  (None, 16, 16, 50)  200         ['depthwise_conv2d_2[0][0]']     
 rmalization)                                                                                     
                                                                                                  
 conv2d_6 (Conv2D)              (None, 16, 16, 200)  5200        ['batch_normalization_8[0][0]']  
                                                                                                  
 batch_normalization_9 (BatchNo  (None, 16, 16, 200)  800        ['conv2d_6[0][0]']               
 rmalization)                                                                                     
                                                                                                  
 add_1 (Add)                    (None, 16, 16, 200)  0           ['batch_normalization_9[0][0]',  
                                                                  're_lu_4[0][0]']                
                                                                                                  
 re_lu_6 (ReLU)                 (None, 16, 16, 200)  0           ['add_1[0][0]']                  
                                                                                                  
 conv2d_7 (Conv2D)              (None, 16, 16, 50)   5050        ['re_lu_6[0][0]']                
                                                                                                  
 batch_normalization_10 (BatchN  (None, 16, 16, 50)  200         ['conv2d_7[0][0]']               
 ormalization)                                                                                    
                                                                                                  
 re_lu_7 (ReLU)                 (None, 16, 16, 50)   0           ['batch_normalization_10[0][0]'] 
                                                                                                  
 reshape_6 (Reshape)            (None, 16, 16, 25,   0           ['re_lu_7[0][0]']                
                                2)                                                                
                                                                                                  
 permute_3 (Permute)            (None, 16, 16, 2, 2  0           ['reshape_6[0][0]']              
                                5)                                                                
                                                                                                  
 reshape_7 (Reshape)            (None, 16, 16, 50)   0           ['permute_3[0][0]']              
                                                                                                  
 depthwise_conv2d_3 (DepthwiseC  (None, 16, 16, 50)  500         ['reshape_7[0][0]']              
 onv2D)                                                                                           
                                                                                                  
 batch_normalization_11 (BatchN  (None, 16, 16, 50)  200         ['depthwise_conv2d_3[0][0]']     
 ormalization)                                                                                    
                                                                                                  
 conv2d_8 (Conv2D)              (None, 16, 16, 200)  5200        ['batch_normalization_11[0][0]'] 
                                                                                                  
 batch_normalization_12 (BatchN  (None, 16, 16, 200)  800        ['conv2d_8[0][0]']               
 ormalization)                                                                                    
                                                                                                  
 add_2 (Add)                    (None, 16, 16, 200)  0           ['batch_normalization_12[0][0]', 
                                                                  're_lu_6[0][0]']                
                                                                                                  
 re_lu_8 (ReLU)                 (None, 16, 16, 200)  0           ['add_2[0][0]']                  
                                                                                                  
 conv2d_9 (Conv2D)              (None, 16, 16, 100)  10100       ['re_lu_8[0][0]']                
                                                                                                  
 batch_normalization_13 (BatchN  (None, 16, 16, 100)  400        ['conv2d_9[0][0]']               
 ormalization)                                                                                    
                                                                                                  
 re_lu_9 (ReLU)                 (None, 16, 16, 100)  0           ['batch_normalization_13[0][0]'] 
                                                                                                  
 reshape_8 (Reshape)            (None, 16, 16, 50,   0           ['re_lu_9[0][0]']                
                                2)                                                                
                                                                                                  
 permute_4 (Permute)            (None, 16, 16, 2, 5  0           ['reshape_8[0][0]']              
                                0)                                                                
                                                                                                  
 reshape_9 (Reshape)            (None, 16, 16, 100)  0           ['permute_4[0][0]']              
                                                                                                  
 depthwise_conv2d_4 (DepthwiseC  (None, 8, 8, 100)   1000        ['reshape_9[0][0]']              
 onv2D)                                                                                           
                                                                                                  
 batch_normalization_14 (BatchN  (None, 8, 8, 100)   400         ['depthwise_conv2d_4[0][0]']     
 ormalization)                                                                                    
                                                                                                  
 conv2d_10 (Conv2D)             (None, 8, 8, 200)    10200       ['batch_normalization_14[0][0]'] 
                                                                                                  
 batch_normalization_15 (BatchN  (None, 8, 8, 200)   800         ['conv2d_10[0][0]']              
 ormalization)                                                                                    
                                                                                                  
 average_pooling2d_1 (AveragePo  (None, 8, 8, 200)   0           ['re_lu_8[0][0]']                
 oling2D)                                                                                         
                                                                                                  
 concatenate_1 (Concatenate)    (None, 8, 8, 400)    0           ['batch_normalization_15[0][0]', 
                                                                  'average_pooling2d_1[0][0]']    
                                                                                                  
 re_lu_10 (ReLU)                (None, 8, 8, 400)    0           ['concatenate_1[0][0]']          
                                                                                                  
 conv2d_11 (Conv2D)             (None, 8, 8, 100)    20100       ['re_lu_10[0][0]']               
                                                                                                  
 batch_normalization_16 (BatchN  (None, 8, 8, 100)   400         ['conv2d_11[0][0]']              
 ormalization)                                                                                    
                                                                                                  
 re_lu_11 (ReLU)                (None, 8, 8, 100)    0           ['batch_normalization_16[0][0]'] 
                                                                                                  
 reshape_10 (Reshape)           (None, 8, 8, 50, 2)  0           ['re_lu_11[0][0]']               
                                                                                                  
 permute_5 (Permute)            (None, 8, 8, 2, 50)  0           ['reshape_10[0][0]']             
                                                                                                  
 reshape_11 (Reshape)           (None, 8, 8, 100)    0           ['permute_5[0][0]']              
                                                                                                  
 depthwise_conv2d_5 (DepthwiseC  (None, 8, 8, 100)   1000        ['reshape_11[0][0]']             
 onv2D)                                                                                           
                                                                                                  
 batch_normalization_17 (BatchN  (None, 8, 8, 100)   400         ['depthwise_conv2d_5[0][0]']     
 ormalization)                                                                                    
                                                                                                  
 conv2d_12 (Conv2D)             (None, 8, 8, 400)    20400       ['batch_normalization_17[0][0]'] 
                                                                                                  
 batch_normalization_18 (BatchN  (None, 8, 8, 400)   1600        ['conv2d_12[0][0]']              
 ormalization)                                                                                    
                                                                                                  
 add_3 (Add)                    (None, 8, 8, 400)    0           ['batch_normalization_18[0][0]', 
                                                                  're_lu_10[0][0]']               
                                                                                                  
 re_lu_12 (ReLU)                (None, 8, 8, 400)    0           ['add_3[0][0]']                  
                                                                                                  
 conv2d_13 (Conv2D)             (None, 8, 8, 100)    20100       ['re_lu_12[0][0]']               
                                                                                                  
 batch_normalization_19 (BatchN  (None, 8, 8, 100)   400         ['conv2d_13[0][0]']              
 ormalization)                                                                                    
                                                                                                  
 re_lu_13 (ReLU)                (None, 8, 8, 100)    0           ['batch_normalization_19[0][0]'] 
                                                                                                  
 reshape_12 (Reshape)           (None, 8, 8, 50, 2)  0           ['re_lu_13[0][0]']               
                                                                                                  
 permute_6 (Permute)            (None, 8, 8, 2, 50)  0           ['reshape_12[0][0]']             
                                                                                                  
 reshape_13 (Reshape)           (None, 8, 8, 100)    0           ['permute_6[0][0]']              
                                                                                                  
 depthwise_conv2d_6 (DepthwiseC  (None, 8, 8, 100)   1000        ['reshape_13[0][0]']             
 onv2D)                                                                                           
                                                                                                  
 batch_normalization_20 (BatchN  (None, 8, 8, 100)   400         ['depthwise_conv2d_6[0][0]']     
 ormalization)                                                                                    
                                                                                                  
 conv2d_14 (Conv2D)             (None, 8, 8, 400)    20400       ['batch_normalization_20[0][0]'] 
                                                                                                  
 batch_normalization_21 (BatchN  (None, 8, 8, 400)   1600        ['conv2d_14[0][0]']              
 ormalization)                                                                                    
                                                                                                  
 add_4 (Add)                    (None, 8, 8, 400)    0           ['batch_normalization_21[0][0]', 
                                                                  're_lu_12[0][0]']               
                                                                                                  
 re_lu_14 (ReLU)                (None, 8, 8, 400)    0           ['add_4[0][0]']                  
                                                                                                  
 conv2d_15 (Conv2D)             (None, 8, 8, 100)    20100       ['re_lu_14[0][0]']               
                                                                                                  
 batch_normalization_22 (BatchN  (None, 8, 8, 100)   400         ['conv2d_15[0][0]']              
 ormalization)                                                                                    
                                                                                                  
 re_lu_15 (ReLU)                (None, 8, 8, 100)    0           ['batch_normalization_22[0][0]'] 
                                                                                                  
 reshape_14 (Reshape)           (None, 8, 8, 50, 2)  0           ['re_lu_15[0][0]']               
                                                                                                  
 permute_7 (Permute)            (None, 8, 8, 2, 50)  0           ['reshape_14[0][0]']             
                                                                                                  
 reshape_15 (Reshape)           (None, 8, 8, 100)    0           ['permute_7[0][0]']              
                                                                                                  
 depthwise_conv2d_7 (DepthwiseC  (None, 8, 8, 100)   1000        ['reshape_15[0][0]']             
 onv2D)                                                                                           
                                                                                                  
 batch_normalization_23 (BatchN  (None, 8, 8, 100)   400         ['depthwise_conv2d_7[0][0]']     
 ormalization)                                                                                    
                                                                                                  
 conv2d_16 (Conv2D)             (None, 8, 8, 400)    20400       ['batch_normalization_23[0][0]'] 
                                                                                                  
 batch_normalization_24 (BatchN  (None, 8, 8, 400)   1600        ['conv2d_16[0][0]']              
 ormalization)                                                                                    
                                                                                                  
 add_5 (Add)                    (None, 8, 8, 400)    0           ['batch_normalization_24[0][0]', 
                                                                  're_lu_14[0][0]']               
                                                                                                  
 re_lu_16 (ReLU)                (None, 8, 8, 400)    0           ['add_5[0][0]']                  
                                                                                                  
 conv2d_17 (Conv2D)             (None, 8, 8, 100)    20100       ['re_lu_16[0][0]']               
                                                                                                  
 batch_normalization_25 (BatchN  (None, 8, 8, 100)   400         ['conv2d_17[0][0]']              
 ormalization)                                                                                    
                                                                                                  
 re_lu_17 (ReLU)                (None, 8, 8, 100)    0           ['batch_normalization_25[0][0]'] 
                                                                                                  
 reshape_16 (Reshape)           (None, 8, 8, 50, 2)  0           ['re_lu_17[0][0]']               
                                                                                                  
 permute_8 (Permute)            (None, 8, 8, 2, 50)  0           ['reshape_16[0][0]']             
                                                                                                  
 reshape_17 (Reshape)           (None, 8, 8, 100)    0           ['permute_8[0][0]']              
                                                                                                  
 depthwise_conv2d_8 (DepthwiseC  (None, 8, 8, 100)   1000        ['reshape_17[0][0]']             
 onv2D)                                                                                           
                                                                                                  
 batch_normalization_26 (BatchN  (None, 8, 8, 100)   400         ['depthwise_conv2d_8[0][0]']     
 ormalization)                                                                                    
                                                                                                  
 conv2d_18 (Conv2D)             (None, 8, 8, 400)    20400       ['batch_normalization_26[0][0]'] 
                                                                                                  
 batch_normalization_27 (BatchN  (None, 8, 8, 400)   1600        ['conv2d_18[0][0]']              
 ormalization)                                                                                    
                                                                                                  
 add_6 (Add)                    (None, 8, 8, 400)    0           ['batch_normalization_27[0][0]', 
                                                                  're_lu_16[0][0]']               
                                                                                                  
 re_lu_18 (ReLU)                (None, 8, 8, 400)    0           ['add_6[0][0]']                  
                                                                                                  
 conv2d_19 (Conv2D)             (None, 8, 8, 100)    20100       ['re_lu_18[0][0]']               
                                                                                                  
 batch_normalization_28 (BatchN  (None, 8, 8, 100)   400         ['conv2d_19[0][0]']              
 ormalization)                                                                                    
                                                                                                  
 re_lu_19 (ReLU)                (None, 8, 8, 100)    0           ['batch_normalization_28[0][0]'] 
                                                                                                  
 reshape_18 (Reshape)           (None, 8, 8, 50, 2)  0           ['re_lu_19[0][0]']               
                                                                                                  
 permute_9 (Permute)            (None, 8, 8, 2, 50)  0           ['reshape_18[0][0]']             
                                                                                                  
 reshape_19 (Reshape)           (None, 8, 8, 100)    0           ['permute_9[0][0]']              
                                                                                                  
 depthwise_conv2d_9 (DepthwiseC  (None, 8, 8, 100)   1000        ['reshape_19[0][0]']             
 onv2D)                                                                                           
                                                                                                  
 batch_normalization_29 (BatchN  (None, 8, 8, 100)   400         ['depthwise_conv2d_9[0][0]']     
 ormalization)                                                                                    
                                                                                                  
 conv2d_20 (Conv2D)             (None, 8, 8, 400)    20400       ['batch_normalization_29[0][0]'] 
                                                                                                  
 batch_normalization_30 (BatchN  (None, 8, 8, 400)   1600        ['conv2d_20[0][0]']              
 ormalization)                                                                                    
                                                                                                  
 add_7 (Add)                    (None, 8, 8, 400)    0           ['batch_normalization_30[0][0]', 
                                                                  're_lu_18[0][0]']               
                                                                                                  
 re_lu_20 (ReLU)                (None, 8, 8, 400)    0           ['add_7[0][0]']                  
                                                                                                  
 conv2d_21 (Conv2D)             (None, 8, 8, 100)    20100       ['re_lu_20[0][0]']               
                                                                                                  
 batch_normalization_31 (BatchN  (None, 8, 8, 100)   400         ['conv2d_21[0][0]']              
 ormalization)                                                                                    
                                                                                                  
 re_lu_21 (ReLU)                (None, 8, 8, 100)    0           ['batch_normalization_31[0][0]'] 
                                                                                                  
 reshape_20 (Reshape)           (None, 8, 8, 50, 2)  0           ['re_lu_21[0][0]']               
                                                                                                  
 permute_10 (Permute)           (None, 8, 8, 2, 50)  0           ['reshape_20[0][0]']             
                                                                                                  
 reshape_21 (Reshape)           (None, 8, 8, 100)    0           ['permute_10[0][0]']             
                                                                                                  
 depthwise_conv2d_10 (Depthwise  (None, 8, 8, 100)   1000        ['reshape_21[0][0]']             
 Conv2D)                                                                                          
                                                                                                  
 batch_normalization_32 (BatchN  (None, 8, 8, 100)   400         ['depthwise_conv2d_10[0][0]']    
 ormalization)                                                                                    
                                                                                                  
 conv2d_22 (Conv2D)             (None, 8, 8, 400)    20400       ['batch_normalization_32[0][0]'] 
                                                                                                  
 batch_normalization_33 (BatchN  (None, 8, 8, 400)   1600        ['conv2d_22[0][0]']              
 ormalization)                                                                                    
                                                                                                  
 add_8 (Add)                    (None, 8, 8, 400)    0           ['batch_normalization_33[0][0]', 
                                                                  're_lu_20[0][0]']               
                                                                                                  
 re_lu_22 (ReLU)                (None, 8, 8, 400)    0           ['add_8[0][0]']                  
                                                                                                  
 conv2d_23 (Conv2D)             (None, 8, 8, 100)    20100       ['re_lu_22[0][0]']               
                                                                                                  
 batch_normalization_34 (BatchN  (None, 8, 8, 100)   400         ['conv2d_23[0][0]']              
 ormalization)                                                                                    
                                                                                                  
 re_lu_23 (ReLU)                (None, 8, 8, 100)    0           ['batch_normalization_34[0][0]'] 
                                                                                                  
 reshape_22 (Reshape)           (None, 8, 8, 50, 2)  0           ['re_lu_23[0][0]']               
                                                                                                  
 permute_11 (Permute)           (None, 8, 8, 2, 50)  0           ['reshape_22[0][0]']             
                                                                                                  
 reshape_23 (Reshape)           (None, 8, 8, 100)    0           ['permute_11[0][0]']             
                                                                                                  
 depthwise_conv2d_11 (Depthwise  (None, 8, 8, 100)   1000        ['reshape_23[0][0]']             
 Conv2D)                                                                                          
                                                                                                  
 batch_normalization_35 (BatchN  (None, 8, 8, 100)   400         ['depthwise_conv2d_11[0][0]']    
 ormalization)                                                                                    
                                                                                                  
 conv2d_24 (Conv2D)             (None, 8, 8, 400)    20400       ['batch_normalization_35[0][0]'] 
                                                                                                  
 batch_normalization_36 (BatchN  (None, 8, 8, 400)   1600        ['conv2d_24[0][0]']              
 ormalization)                                                                                    
                                                                                                  
 add_9 (Add)                    (None, 8, 8, 400)    0           ['batch_normalization_36[0][0]', 
                                                                  're_lu_22[0][0]']               
                                                                                                  
 re_lu_24 (ReLU)                (None, 8, 8, 400)    0           ['add_9[0][0]']                  
                                                                                                  
 conv2d_25 (Conv2D)             (None, 8, 8, 200)    40200       ['re_lu_24[0][0]']               
                                                                                                  
 batch_normalization_37 (BatchN  (None, 8, 8, 200)   800         ['conv2d_25[0][0]']              
 ormalization)                                                                                    
                                                                                                  
 re_lu_25 (ReLU)                (None, 8, 8, 200)    0           ['batch_normalization_37[0][0]'] 
                                                                                                  
 reshape_24 (Reshape)           (None, 8, 8, 100, 2  0           ['re_lu_25[0][0]']               
                                )                                                                 
                                                                                                  
 permute_12 (Permute)           (None, 8, 8, 2, 100  0           ['reshape_24[0][0]']             
                                )                                                                 
                                                                                                  
 reshape_25 (Reshape)           (None, 8, 8, 200)    0           ['permute_12[0][0]']             
                                                                                                  
 depthwise_conv2d_12 (Depthwise  (None, 4, 4, 200)   2000        ['reshape_25[0][0]']             
 Conv2D)                                                                                          
                                                                                                  
 batch_normalization_38 (BatchN  (None, 4, 4, 200)   800         ['depthwise_conv2d_12[0][0]']    
 ormalization)                                                                                    
                                                                                                  
 conv2d_26 (Conv2D)             (None, 4, 4, 400)    40400       ['batch_normalization_38[0][0]'] 
                                                                                                  
 batch_normalization_39 (BatchN  (None, 4, 4, 400)   1600        ['conv2d_26[0][0]']              
 ormalization)                                                                                    
                                                                                                  
 average_pooling2d_2 (AveragePo  (None, 4, 4, 400)   0           ['re_lu_24[0][0]']               
 oling2D)                                                                                         
                                                                                                  
 concatenate_2 (Concatenate)    (None, 4, 4, 800)    0           ['batch_normalization_39[0][0]', 
                                                                  'average_pooling2d_2[0][0]']    
                                                                                                  
 re_lu_26 (ReLU)                (None, 4, 4, 800)    0           ['concatenate_2[0][0]']          
                                                                                                  
 conv2d_27 (Conv2D)             (None, 4, 4, 200)    80200       ['re_lu_26[0][0]']               
                                                                                                  
 batch_normalization_40 (BatchN  (None, 4, 4, 200)   800         ['conv2d_27[0][0]']              
 ormalization)                                                                                    
                                                                                                  
 re_lu_27 (ReLU)                (None, 4, 4, 200)    0           ['batch_normalization_40[0][0]'] 
                                                                                                  
 reshape_26 (Reshape)           (None, 4, 4, 100, 2  0           ['re_lu_27[0][0]']               
                                )                                                                 
                                                                                                  
 permute_13 (Permute)           (None, 4, 4, 2, 100  0           ['reshape_26[0][0]']             
                                )                                                                 
                                                                                                  
 reshape_27 (Reshape)           (None, 4, 4, 200)    0           ['permute_13[0][0]']             
                                                                                                  
 depthwise_conv2d_13 (Depthwise  (None, 4, 4, 200)   2000        ['reshape_27[0][0]']             
 Conv2D)                                                                                          
                                                                                                  
 batch_normalization_41 (BatchN  (None, 4, 4, 200)   800         ['depthwise_conv2d_13[0][0]']    
 ormalization)                                                                                    
                                                                                                  
 conv2d_28 (Conv2D)             (None, 4, 4, 800)    80800       ['batch_normalization_41[0][0]'] 
                                                                                                  
 batch_normalization_42 (BatchN  (None, 4, 4, 800)   3200        ['conv2d_28[0][0]']              
 ormalization)                                                                                    
                                                                                                  
 add_10 (Add)                   (None, 4, 4, 800)    0           ['batch_normalization_42[0][0]', 
                                                                  're_lu_26[0][0]']               
                                                                                                  
 re_lu_28 (ReLU)                (None, 4, 4, 800)    0           ['add_10[0][0]']                 
                                                                                                  
 conv2d_29 (Conv2D)             (None, 4, 4, 200)    80200       ['re_lu_28[0][0]']               
                                                                                                  
 batch_normalization_43 (BatchN  (None, 4, 4, 200)   800         ['conv2d_29[0][0]']              
 ormalization)                                                                                    
                                                                                                  
 re_lu_29 (ReLU)                (None, 4, 4, 200)    0           ['batch_normalization_43[0][0]'] 
                                                                                                  
 reshape_28 (Reshape)           (None, 4, 4, 100, 2  0           ['re_lu_29[0][0]']               
                                )                                                                 
                                                                                                  
 permute_14 (Permute)           (None, 4, 4, 2, 100  0           ['reshape_28[0][0]']             
                                )                                                                 
                                                                                                  
 reshape_29 (Reshape)           (None, 4, 4, 200)    0           ['permute_14[0][0]']             
                                                                                                  
 depthwise_conv2d_14 (Depthwise  (None, 4, 4, 200)   2000        ['reshape_29[0][0]']             
 Conv2D)                                                                                          
                                                                                                  
 batch_normalization_44 (BatchN  (None, 4, 4, 200)   800         ['depthwise_conv2d_14[0][0]']    
 ormalization)                                                                                    
                                                                                                  
 conv2d_30 (Conv2D)             (None, 4, 4, 800)    80800       ['batch_normalization_44[0][0]'] 
                                                                                                  
 batch_normalization_45 (BatchN  (None, 4, 4, 800)   3200        ['conv2d_30[0][0]']              
 ormalization)                                                                                    
                                                                                                  
 add_11 (Add)                   (None, 4, 4, 800)    0           ['batch_normalization_45[0][0]', 
                                                                  're_lu_28[0][0]']               
                                                                                                  
 re_lu_30 (ReLU)                (None, 4, 4, 800)    0           ['add_11[0][0]']                 
                                                                                                  
 conv2d_31 (Conv2D)             (None, 4, 4, 200)    80200       ['re_lu_30[0][0]']               
                                                                                                  
 batch_normalization_46 (BatchN  (None, 4, 4, 200)   800         ['conv2d_31[0][0]']              
 ormalization)                                                                                    
                                                                                                  
 re_lu_31 (ReLU)                (None, 4, 4, 200)    0           ['batch_normalization_46[0][0]'] 
                                                                                                  
 reshape_30 (Reshape)           (None, 4, 4, 100, 2  0           ['re_lu_31[0][0]']               
                                )                                                                 
                                                                                                  
 permute_15 (Permute)           (None, 4, 4, 2, 100  0           ['reshape_30[0][0]']             
                                )                                                                 
                                                                                                  
 reshape_31 (Reshape)           (None, 4, 4, 200)    0           ['permute_15[0][0]']             
                                                                                                  
 depthwise_conv2d_15 (Depthwise  (None, 4, 4, 200)   2000        ['reshape_31[0][0]']             
 Conv2D)                                                                                          
                                                                                                  
 batch_normalization_47 (BatchN  (None, 4, 4, 200)   800         ['depthwise_conv2d_15[0][0]']    
 ormalization)                                                                                    
                                                                                                  
 conv2d_32 (Conv2D)             (None, 4, 4, 800)    80800       ['batch_normalization_47[0][0]'] 
                                                                                                  
 batch_normalization_48 (BatchN  (None, 4, 4, 800)   3200        ['conv2d_32[0][0]']              
 ormalization)                                                                                    
                                                                                                  
 add_12 (Add)                   (None, 4, 4, 800)    0           ['batch_normalization_48[0][0]', 
                                                                  're_lu_30[0][0]']               
                                                                                                  
 re_lu_32 (ReLU)                (None, 4, 4, 800)    0           ['add_12[0][0]']                 
                                                                                                  
 global_average_pooling2d (Glob  (None, 800)         0           ['re_lu_32[0][0]']               
 alAveragePooling2D)                                                                              
                                                                                                  
 flatten (Flatten)              (None, 800)          0           ['global_average_pooling2d[0][0]'
                                                                 ]                                
                                                                                                  
 dense_1 (Dense)                (None, 512)          410112      ['flatten[0][0]']                
                                                                                                  
 dense_2 (Dense)                (None, 5)            2565        ['dense_1[0][0]']                
                                                                                                  
==================================================================================================
Total params: 1,375,525
Trainable params: 1,355,125
Non-trainable params: 20,400
__________________________________________________________________________________________________
…
__________________________________________________________________________________________________
 Layer (type)                   Output Shape         Param #     Connected to                     
==================================================================================================
 input_3 (InputLayer)           [(None, 128, 128, 3  0           []                               
                                )]                                                                
                                                                                                  
 conv2d_66 (Conv2D)             (None, 64, 64, 24)   672         ['input_3[0][0]']                
                                                                                                  
 batch_normalization_98 (BatchN  (None, 64, 64, 24)  96          ['conv2d_66[0][0]']              
 ormalization)                                                                                    
                                                                                                  
 re_lu_66 (ReLU)                (None, 64, 64, 24)   0           ['batch_normalization_98[0][0]'] 
                                                                                                  
 max_pooling2d_2 (MaxPooling2D)  (None, 32, 32, 24)  0           ['re_lu_66[0][0]']               
                                                                                                  
 conv2d_67 (Conv2D)             (None, 32, 32, 50)   650         ['max_pooling2d_2[0][0]']        
                                                                                                  
 batch_normalization_99 (BatchN  (None, 32, 32, 50)  200         ['conv2d_67[0][0]']              
 ormalization)                                                                                    
                                                                                                  
 re_lu_67 (ReLU)                (None, 32, 32, 50)   0           ['batch_normalization_99[0][0]'] 
                                                                                                  
 reshape_64 (Reshape)           (None, 32, 32, 25,   0           ['re_lu_67[0][0]']               
                                2)                                                                
                                                                                                  
 permute_32 (Permute)           (None, 32, 32, 2, 2  0           ['reshape_64[0][0]']             
                                5)                                                                
                                                                                                  
 reshape_65 (Reshape)           (None, 32, 32, 50)   0           ['permute_32[0][0]']             
                                                                                                  
 depthwise_conv2d_32 (Depthwise  (None, 16, 16, 50)  500         ['reshape_65[0][0]']             
 Conv2D)                                                                                          
                                                                                                  
 batch_normalization_100 (Batch  (None, 16, 16, 50)  200         ['depthwise_conv2d_32[0][0]']    
 Normalization)                                                                                   
                                                                                                  
 conv2d_68 (Conv2D)             (None, 16, 16, 176)  4576        ['batch_normalization_100[0][0]']
                                                                                                  
 batch_normalization_101 (Batch  (None, 16, 16, 176)  704        ['conv2d_68[0][0]']              
 Normalization)                                                                                   
                                                                                                  
 average_pooling2d_6 (AveragePo  (None, 16, 16, 24)  0           ['max_pooling2d_2[0][0]']        
 oling2D)                                                                                         
                                                                                                  
 concatenate_6 (Concatenate)    (None, 16, 16, 200)  0           ['batch_normalization_101[0][0]',
                                                                  'average_pooling2d_6[0][0]']    
                                                                                                  
 re_lu_68 (ReLU)                (None, 16, 16, 200)  0           ['concatenate_6[0][0]']          
                                                                                                  
 conv2d_69 (Conv2D)             (None, 16, 16, 50)   5050        ['re_lu_68[0][0]']               
                                                                                                  
 batch_normalization_102 (Batch  (None, 16, 16, 50)  200         ['conv2d_69[0][0]']              
 Normalization)                                                                                   
                                                                                                  
 re_lu_69 (ReLU)                (None, 16, 16, 50)   0           ['batch_normalization_102[0][0]']
                                                                                                  
 reshape_66 (Reshape)           (None, 16, 16, 25,   0           ['re_lu_69[0][0]']               
                                2)                                                                
                                                                                                  
 permute_33 (Permute)           (None, 16, 16, 2, 2  0           ['reshape_66[0][0]']             
                                5)                                                                
                                                                                                  
 reshape_67 (Reshape)           (None, 16, 16, 50)   0           ['permute_33[0][0]']             
                                                                                                  
 depthwise_conv2d_33 (Depthwise  (None, 16, 16, 50)  500         ['reshape_67[0][0]']             
 Conv2D)                                                                                          
                                                                                                  
 batch_normalization_103 (Batch  (None, 16, 16, 50)  200         ['depthwise_conv2d_33[0][0]']    
 Normalization)                                                                                   
                                                                                                  
 conv2d_70 (Conv2D)             (None, 16, 16, 200)  5200        ['batch_normalization_103[0][0]']
                                                                                                  
 batch_normalization_104 (Batch  (None, 16, 16, 200)  800        ['conv2d_70[0][0]']              
 Normalization)                                                                                   
                                                                                                  
 add_26 (Add)                   (None, 16, 16, 200)  0           ['batch_normalization_104[0][0]',
                                                                  're_lu_68[0][0]']               
                                                                                                  
 re_lu_70 (ReLU)                (None, 16, 16, 200)  0           ['add_26[0][0]']                 
                                                                                                  
 conv2d_71 (Conv2D)             (None, 16, 16, 50)   5050        ['re_lu_70[0][0]']               
                                                                                                  
 batch_normalization_105 (Batch  (None, 16, 16, 50)  200         ['conv2d_71[0][0]']              
 Normalization)                                                                                   
                                                                                                  
 re_lu_71 (ReLU)                (None, 16, 16, 50)   0           ['batch_normalization_105[0][0]']
                                                                                                  
 reshape_68 (Reshape)           (None, 16, 16, 25,   0           ['re_lu_71[0][0]']               
                                2)                                                                
                                                                                                  
 permute_34 (Permute)           (None, 16, 16, 2, 2  0           ['reshape_68[0][0]']             
                                5)                                                                
                                                                                                  
 reshape_69 (Reshape)           (None, 16, 16, 50)   0           ['permute_34[0][0]']             
                                                                                                  
 depthwise_conv2d_34 (Depthwise  (None, 16, 16, 50)  500         ['reshape_69[0][0]']             
 Conv2D)                                                                                          
                                                                                                  
 batch_normalization_106 (Batch  (None, 16, 16, 50)  200         ['depthwise_conv2d_34[0][0]']    
 Normalization)                                                                                   
                                                                                                  
 conv2d_72 (Conv2D)             (None, 16, 16, 200)  5200        ['batch_normalization_106[0][0]']
                                                                                                  
 batch_normalization_107 (Batch  (None, 16, 16, 200)  800        ['conv2d_72[0][0]']              
 Normalization)                                                                                   
                                                                                                  
 add_27 (Add)                   (None, 16, 16, 200)  0           ['batch_normalization_107[0][0]',
                                                                  're_lu_70[0][0]']               
                                                                                                  
 re_lu_72 (ReLU)                (None, 16, 16, 200)  0           ['add_27[0][0]']                 
                                                                                                  
 conv2d_73 (Conv2D)             (None, 16, 16, 50)   5050        ['re_lu_72[0][0]']               
                                                                                                  
 batch_normalization_108 (Batch  (None, 16, 16, 50)  200         ['conv2d_73[0][0]']              
 Normalization)                                                                                   
                                                                                                  
 re_lu_73 (ReLU)                (None, 16, 16, 50)   0           ['batch_normalization_108[0][0]']
                                                                                                  
 reshape_70 (Reshape)           (None, 16, 16, 25,   0           ['re_lu_73[0][0]']               
                                2)                                                                
                                                                                                  
 permute_35 (Permute)           (None, 16, 16, 2, 2  0           ['reshape_70[0][0]']             
                                5)                                                                
                                                                                                  
 reshape_71 (Reshape)           (None, 16, 16, 50)   0           ['permute_35[0][0]']             
                                                                                                  
 depthwise_conv2d_35 (Depthwise  (None, 16, 16, 50)  500         ['reshape_71[0][0]']             
 Conv2D)                                                                                          
                                                                                                  
 batch_normalization_109 (Batch  (None, 16, 16, 50)  200         ['depthwise_conv2d_35[0][0]']    
 Normalization)                                                                                   
                                                                                                  
 conv2d_74 (Conv2D)             (None, 16, 16, 200)  5200        ['batch_normalization_109[0][0]']
                                                                                                  
 batch_normalization_110 (Batch  (None, 16, 16, 200)  800        ['conv2d_74[0][0]']              
 Normalization)                                                                                   
                                                                                                  
 add_28 (Add)                   (None, 16, 16, 200)  0           ['batch_normalization_110[0][0]',
                                                                  're_lu_72[0][0]']               
                                                                                                  
 re_lu_74 (ReLU)                (None, 16, 16, 200)  0           ['add_28[0][0]']                 
                                                                                                  
 conv2d_75 (Conv2D)             (None, 16, 16, 100)  10100       ['re_lu_74[0][0]']               
                                                                                                  
 batch_normalization_111 (Batch  (None, 16, 16, 100)  400        ['conv2d_75[0][0]']              
 Normalization)                                                                                   
                                                                                                  
 re_lu_75 (ReLU)                (None, 16, 16, 100)  0           ['batch_normalization_111[0][0]']
                                                                                                  
 reshape_72 (Reshape)           (None, 16, 16, 50,   0           ['re_lu_75[0][0]']               
                                2)                                                                
                                                                                                  
 permute_36 (Permute)           (None, 16, 16, 2, 5  0           ['reshape_72[0][0]']             
                                0)                                                                
                                                                                                  
 reshape_73 (Reshape)           (None, 16, 16, 100)  0           ['permute_36[0][0]']             
                                                                                                  
 depthwise_conv2d_36 (Depthwise  (None, 8, 8, 100)   1000        ['reshape_73[0][0]']             
 Conv2D)                                                                                          
                                                                                                  
 batch_normalization_112 (Batch  (None, 8, 8, 100)   400         ['depthwise_conv2d_36[0][0]']    
 Normalization)                                                                                   
                                                                                                  
 conv2d_76 (Conv2D)             (None, 8, 8, 200)    10200       ['batch_normalization_112[0][0]']
                                                                                                  
 batch_normalization_113 (Batch  (None, 8, 8, 200)   800         ['conv2d_76[0][0]']              
 Normalization)                                                                                   
                                                                                                  
 average_pooling2d_7 (AveragePo  (None, 8, 8, 200)   0           ['re_lu_74[0][0]']               
 oling2D)                                                                                         
                                                                                                  
 concatenate_7 (Concatenate)    (None, 8, 8, 400)    0           ['batch_normalization_113[0][0]',
                                                                  'average_pooling2d_7[0][0]']    
                                                                                                  
 re_lu_76 (ReLU)                (None, 8, 8, 400)    0           ['concatenate_7[0][0]']          
                                                                                                  
 conv2d_77 (Conv2D)             (None, 8, 8, 100)    20100       ['re_lu_76[0][0]']               
                                                                                                  
 batch_normalization_114 (Batch  (None, 8, 8, 100)   400         ['conv2d_77[0][0]']              
 Normalization)                                                                                   
                                                                                                  
 re_lu_77 (ReLU)                (None, 8, 8, 100)    0           ['batch_normalization_114[0][0]']
                                                                                                  
 reshape_74 (Reshape)           (None, 8, 8, 50, 2)  0           ['re_lu_77[0][0]']               
                                                                                                  
 permute_37 (Permute)           (None, 8, 8, 2, 50)  0           ['reshape_74[0][0]']             
                                                                                                  
 reshape_75 (Reshape)           (None, 8, 8, 100)    0           ['permute_37[0][0]']             
                                                                                                  
 depthwise_conv2d_37 (Depthwise  (None, 8, 8, 100)   1000        ['reshape_75[0][0]']             
 Conv2D)                                                                                          
                                                                                                  
 batch_normalization_115 (Batch  (None, 8, 8, 100)   400         ['depthwise_conv2d_37[0][0]']    
 Normalization)                                                                                   
                                                                                                  
 conv2d_78 (Conv2D)             (None, 8, 8, 400)    20400       ['batch_normalization_115[0][0]']
                                                                                                  
 batch_normalization_116 (Batch  (None, 8, 8, 400)   1600        ['conv2d_78[0][0]']              
 Normalization)                                                                                   
                                                                                                  
 add_29 (Add)                   (None, 8, 8, 400)    0           ['batch_normalization_116[0][0]',
                                                                  're_lu_76[0][0]']               
                                                                                                  
 re_lu_78 (ReLU)                (None, 8, 8, 400)    0           ['add_29[0][0]']                 
                                                                                                  
 conv2d_79 (Conv2D)             (None, 8, 8, 100)    20100       ['re_lu_78[0][0]']               
                                                                                                  
 batch_normalization_117 (Batch  (None, 8, 8, 100)   400         ['conv2d_79[0][0]']              
 Normalization)                                                                                   
                                                                                                  
 re_lu_79 (ReLU)                (None, 8, 8, 100)    0           ['batch_normalization_117[0][0]']
                                                                                                  
 reshape_76 (Reshape)           (None, 8, 8, 50, 2)  0           ['re_lu_79[0][0]']               
                                                                                                  
 permute_38 (Permute)           (None, 8, 8, 2, 50)  0           ['reshape_76[0][0]']             
                                                                                                  
 reshape_77 (Reshape)           (None, 8, 8, 100)    0           ['permute_38[0][0]']             
                                                                                                  
 depthwise_conv2d_38 (Depthwise  (None, 8, 8, 100)   1000        ['reshape_77[0][0]']             
 Conv2D)                                                                                          
                                                                                                  
 batch_normalization_118 (Batch  (None, 8, 8, 100)   400         ['depthwise_conv2d_38[0][0]']    
 Normalization)                                                                                   
                                                                                                  
 conv2d_80 (Conv2D)             (None, 8, 8, 400)    20400       ['batch_normalization_118[0][0]']
                                                                                                  
 batch_normalization_119 (Batch  (None, 8, 8, 400)   1600        ['conv2d_80[0][0]']              
 Normalization)                                                                                   
                                                                                                  
 add_30 (Add)                   (None, 8, 8, 400)    0           ['batch_normalization_119[0][0]',
                                                                  're_lu_78[0][0]']               
                                                                                                  
 re_lu_80 (ReLU)                (None, 8, 8, 400)    0           ['add_30[0][0]']                 
                                                                                                  
 conv2d_81 (Conv2D)             (None, 8, 8, 100)    20100       ['re_lu_80[0][0]']               
                                                                                                  
 batch_normalization_120 (Batch  (None, 8, 8, 100)   400         ['conv2d_81[0][0]']              
 Normalization)                                                                                   
                                                                                                  
 re_lu_81 (ReLU)                (None, 8, 8, 100)    0           ['batch_normalization_120[0][0]']
                                                                                                  
 reshape_78 (Reshape)           (None, 8, 8, 50, 2)  0           ['re_lu_81[0][0]']               
                                                                                                  
 permute_39 (Permute)           (None, 8, 8, 2, 50)  0           ['reshape_78[0][0]']             
                                                                                                  
 reshape_79 (Reshape)           (None, 8, 8, 100)    0           ['permute_39[0][0]']             
                                                                                                  
 depthwise_conv2d_39 (Depthwise  (None, 8, 8, 100)   1000        ['reshape_79[0][0]']             
 Conv2D)                                                                                          
                                                                                                  
 batch_normalization_121 (Batch  (None, 8, 8, 100)   400         ['depthwise_conv2d_39[0][0]']    
 Normalization)                                                                                   
                                                                                                  
 conv2d_82 (Conv2D)             (None, 8, 8, 400)    20400       ['batch_normalization_121[0][0]']
                                                                                                  
 batch_normalization_122 (Batch  (None, 8, 8, 400)   1600        ['conv2d_82[0][0]']              
 Normalization)                                                                                   
                                                                                                  
 add_31 (Add)                   (None, 8, 8, 400)    0           ['batch_normalization_122[0][0]',
                                                                  're_lu_80[0][0]']               
                                                                                                  
 re_lu_82 (ReLU)                (None, 8, 8, 400)    0           ['add_31[0][0]']                 
                                                                                                  
 conv2d_83 (Conv2D)             (None, 8, 8, 100)    20100       ['re_lu_82[0][0]']               
                                                                                                  
 batch_normalization_123 (Batch  (None, 8, 8, 100)   400         ['conv2d_83[0][0]']              
 Normalization)                                                                                   
                                                                                                  
 re_lu_83 (ReLU)                (None, 8, 8, 100)    0           ['batch_normalization_123[0][0]']
                                                                                                  
 reshape_80 (Reshape)           (None, 8, 8, 50, 2)  0           ['re_lu_83[0][0]']               
                                                                                                  
 permute_40 (Permute)           (None, 8, 8, 2, 50)  0           ['reshape_80[0][0]']             
                                                                                                  
 reshape_81 (Reshape)           (None, 8, 8, 100)    0           ['permute_40[0][0]']             
                                                                                                  
 depthwise_conv2d_40 (Depthwise  (None, 8, 8, 100)   1000        ['reshape_81[0][0]']             
 Conv2D)                                                                                          
                                                                                                  
 batch_normalization_124 (Batch  (None, 8, 8, 100)   400         ['depthwise_conv2d_40[0][0]']    
 Normalization)                                                                                   
                                                                                                  
 conv2d_84 (Conv2D)             (None, 8, 8, 400)    20400       ['batch_normalization_124[0][0]']
                                                                                                  
 batch_normalization_125 (Batch  (None, 8, 8, 400)   1600        ['conv2d_84[0][0]']              
 Normalization)                                                                                   
                                                                                                  
 add_32 (Add)                   (None, 8, 8, 400)    0           ['batch_normalization_125[0][0]',
                                                                  're_lu_82[0][0]']               
                                                                                                  
 re_lu_84 (ReLU)                (None, 8, 8, 400)    0           ['add_32[0][0]']                 
                                                                                                  
 conv2d_85 (Conv2D)             (None, 8, 8, 100)    20100       ['re_lu_84[0][0]']               
                                                                                                  
 batch_normalization_126 (Batch  (None, 8, 8, 100)   400         ['conv2d_85[0][0]']              
 Normalization)                                                                                   
                                                                                                  
 re_lu_85 (ReLU)                (None, 8, 8, 100)    0           ['batch_normalization_126[0][0]']
                                                                                                  
 reshape_82 (Reshape)           (None, 8, 8, 50, 2)  0           ['re_lu_85[0][0]']               
                                                                                                  
 permute_41 (Permute)           (None, 8, 8, 2, 50)  0           ['reshape_82[0][0]']             
                                                                                                  
 reshape_83 (Reshape)           (None, 8, 8, 100)    0           ['permute_41[0][0]']             
                                                                                                  
 depthwise_conv2d_41 (Depthwise  (None, 8, 8, 100)   1000        ['reshape_83[0][0]']             
 Conv2D)                                                                                          
                                                                                                  
 batch_normalization_127 (Batch  (None, 8, 8, 100)   400         ['depthwise_conv2d_41[0][0]']    
 Normalization)                                                                                   
                                                                                                  
 conv2d_86 (Conv2D)             (None, 8, 8, 400)    20400       ['batch_normalization_127[0][0]']
                                                                                                  
 batch_normalization_128 (Batch  (None, 8, 8, 400)   1600        ['conv2d_86[0][0]']              
 Normalization)                                                                                   
                                                                                                  
 add_33 (Add)                   (None, 8, 8, 400)    0           ['batch_normalization_128[0][0]',
                                                                  're_lu_84[0][0]']               
                                                                                                  
 re_lu_86 (ReLU)                (None, 8, 8, 400)    0           ['add_33[0][0]']                 
                                                                                                  
 conv2d_87 (Conv2D)             (None, 8, 8, 100)    20100       ['re_lu_86[0][0]']               
                                                                                                  
 batch_normalization_129 (Batch  (None, 8, 8, 100)   400         ['conv2d_87[0][0]']              
 Normalization)                                                                                   
                                                                                                  
 re_lu_87 (ReLU)                (None, 8, 8, 100)    0           ['batch_normalization_129[0][0]']
                                                                                                  
 reshape_84 (Reshape)           (None, 8, 8, 50, 2)  0           ['re_lu_87[0][0]']               
                                                                                                  
 permute_42 (Permute)           (None, 8, 8, 2, 50)  0           ['reshape_84[0][0]']             
                                                                                                  
 reshape_85 (Reshape)           (None, 8, 8, 100)    0           ['permute_42[0][0]']             
                                                                                                  
 depthwise_conv2d_42 (Depthwise  (None, 8, 8, 100)   1000        ['reshape_85[0][0]']             
 Conv2D)                                                                                          
                                                                                                  
 batch_normalization_130 (Batch  (None, 8, 8, 100)   400         ['depthwise_conv2d_42[0][0]']    
 Normalization)                                                                                   
                                                                                                  
 conv2d_88 (Conv2D)             (None, 8, 8, 400)    20400       ['batch_normalization_130[0][0]']
                                                                                                  
 batch_normalization_131 (Batch  (None, 8, 8, 400)   1600        ['conv2d_88[0][0]']              
 Normalization)                                                                                   
                                                                                                  
 add_34 (Add)                   (None, 8, 8, 400)    0           ['batch_normalization_131[0][0]',
                                                                  're_lu_86[0][0]']               
                                                                                                  
 re_lu_88 (ReLU)                (None, 8, 8, 400)    0           ['add_34[0][0]']                 
                                                                                                  
 conv2d_89 (Conv2D)             (None, 8, 8, 100)    20100       ['re_lu_88[0][0]']               
                                                                                                  
 batch_normalization_132 (Batch  (None, 8, 8, 100)   400         ['conv2d_89[0][0]']              
 Normalization)                                                                                   
                                                                                                  
 re_lu_89 (ReLU)                (None, 8, 8, 100)    0           ['batch_normalization_132[0][0]']
                                                                                                  
 reshape_86 (Reshape)           (None, 8, 8, 50, 2)  0           ['re_lu_89[0][0]']               
                                                                                                  
 permute_43 (Permute)           (None, 8, 8, 2, 50)  0           ['reshape_86[0][0]']             
                                                                                                  
 reshape_87 (Reshape)           (None, 8, 8, 100)    0           ['permute_43[0][0]']             
                                                                                                  
 depthwise_conv2d_43 (Depthwise  (None, 8, 8, 100)   1000        ['reshape_87[0][0]']             
 Conv2D)                                                                                          
                                                                                                  
 batch_normalization_133 (Batch  (None, 8, 8, 100)   400         ['depthwise_conv2d_43[0][0]']    
 Normalization)                                                                                   
                                                                                                  
 conv2d_90 (Conv2D)             (None, 8, 8, 400)    20400       ['batch_normalization_133[0][0]']
                                                                                                  
 batch_normalization_134 (Batch  (None, 8, 8, 400)   1600        ['conv2d_90[0][0]']              
 Normalization)                                                                                   
                                                                                                  
 add_35 (Add)                   (None, 8, 8, 400)    0           ['batch_normalization_134[0][0]',
                                                                  're_lu_88[0][0]']               
                                                                                                  
 re_lu_90 (ReLU)                (None, 8, 8, 400)    0           ['add_35[0][0]']                 
                                                                                                  
 conv2d_91 (Conv2D)             (None, 8, 8, 200)    40200       ['re_lu_90[0][0]']               
                                                                                                  
 batch_normalization_135 (Batch  (None, 8, 8, 200)   800         ['conv2d_91[0][0]']              
 Normalization)                                                                                   
                                                                                                  
 re_lu_91 (ReLU)                (None, 8, 8, 200)    0           ['batch_normalization_135[0][0]']
                                                                                                  
 reshape_88 (Reshape)           (None, 8, 8, 100, 2  0           ['re_lu_91[0][0]']               
                                )                                                                 
                                                                                                  
 permute_44 (Permute)           (None, 8, 8, 2, 100  0           ['reshape_88[0][0]']             
                                )                                                                 
                                                                                                  
 reshape_89 (Reshape)           (None, 8, 8, 200)    0           ['permute_44[0][0]']             
                                                                                                  
 depthwise_conv2d_44 (Depthwise  (None, 4, 4, 200)   2000        ['reshape_89[0][0]']             
 Conv2D)                                                                                          
                                                                                                  
 batch_normalization_136 (Batch  (None, 4, 4, 200)   800         ['depthwise_conv2d_44[0][0]']    
 Normalization)                                                                                   
                                                                                                  
 conv2d_92 (Conv2D)             (None, 4, 4, 400)    40400       ['batch_normalization_136[0][0]']
                                                                                                  
 batch_normalization_137 (Batch  (None, 4, 4, 400)   1600        ['conv2d_92[0][0]']              
 Normalization)                                                                                   
                                                                                                  
 average_pooling2d_8 (AveragePo  (None, 4, 4, 400)   0           ['re_lu_90[0][0]']               
 oling2D)                                                                                         
                                                                                                  
 concatenate_8 (Concatenate)    (None, 4, 4, 800)    0           ['batch_normalization_137[0][0]',
                                                                  'average_pooling2d_8[0][0]']    
                                                                                                  
 re_lu_92 (ReLU)                (None, 4, 4, 800)    0           ['concatenate_8[0][0]']          
                                                                                                  
 conv2d_93 (Conv2D)             (None, 4, 4, 200)    80200       ['re_lu_92[0][0]']               
                                                                                                  
 batch_normalization_138 (Batch  (None, 4, 4, 200)   800         ['conv2d_93[0][0]']              
 Normalization)                                                                                   
                                                                                                  
 re_lu_93 (ReLU)                (None, 4, 4, 200)    0           ['batch_normalization_138[0][0]']
                                                                                                  
 reshape_90 (Reshape)           (None, 4, 4, 100, 2  0           ['re_lu_93[0][0]']               
                                )                                                                 
                                                                                                  
 permute_45 (Permute)           (None, 4, 4, 2, 100  0           ['reshape_90[0][0]']             
                                )                                                                 
                                                                                                  
 reshape_91 (Reshape)           (None, 4, 4, 200)    0           ['permute_45[0][0]']             
                                                                                                  
 depthwise_conv2d_45 (Depthwise  (None, 4, 4, 200)   2000        ['reshape_91[0][0]']             
 Conv2D)                                                                                          
                                                                                                  
 batch_normalization_139 (Batch  (None, 4, 4, 200)   800         ['depthwise_conv2d_45[0][0]']    
 Normalization)                                                                                   
                                                                                                  
 conv2d_94 (Conv2D)             (None, 4, 4, 800)    80800       ['batch_normalization_139[0][0]']
                                                                                                  
 batch_normalization_140 (Batch  (None, 4, 4, 800)   3200        ['conv2d_94[0][0]']              
 Normalization)                                                                                   
                                                                                                  
 add_36 (Add)                   (None, 4, 4, 800)    0           ['batch_normalization_140[0][0]',
                                                                  're_lu_92[0][0]']               
                                                                                                  
 re_lu_94 (ReLU)                (None, 4, 4, 800)    0           ['add_36[0][0]']                 
                                                                                                  
 conv2d_95 (Conv2D)             (None, 4, 4, 200)    80200       ['re_lu_94[0][0]']               
                                                                                                  
 batch_normalization_141 (Batch  (None, 4, 4, 200)   800         ['conv2d_95[0][0]']              
 Normalization)                                                                                   
                                                                                                  
 re_lu_95 (ReLU)                (None, 4, 4, 200)    0           ['batch_normalization_141[0][0]']
                                                                                                  
 reshape_92 (Reshape)           (None, 4, 4, 100, 2  0           ['re_lu_95[0][0]']               
                                )                                                                 
                                                                                                  
 permute_46 (Permute)           (None, 4, 4, 2, 100  0           ['reshape_92[0][0]']             
                                )                                                                 
                                                                                                  
 reshape_93 (Reshape)           (None, 4, 4, 200)    0           ['permute_46[0][0]']             
                                                                                                  
 depthwise_conv2d_46 (Depthwise  (None, 4, 4, 200)   2000        ['reshape_93[0][0]']             
 Conv2D)                                                                                          
                                                                                                  
 batch_normalization_142 (Batch  (None, 4, 4, 200)   800         ['depthwise_conv2d_46[0][0]']    
 Normalization)                                                                                   
                                                                                                  
 conv2d_96 (Conv2D)             (None, 4, 4, 800)    80800       ['batch_normalization_142[0][0]']
                                                                                                  
 batch_normalization_143 (Batch  (None, 4, 4, 800)   3200        ['conv2d_96[0][0]']              
 Normalization)                                                                                   
                                                                                                  
 add_37 (Add)                   (None, 4, 4, 800)    0           ['batch_normalization_143[0][0]',
                                                                  're_lu_94[0][0]']               
                                                                                                  
 re_lu_96 (ReLU)                (None, 4, 4, 800)    0           ['add_37[0][0]']                 
                                                                                                  
 conv2d_97 (Conv2D)             (None, 4, 4, 200)    80200       ['re_lu_96[0][0]']               
                                                                                                  
 batch_normalization_144 (Batch  (None, 4, 4, 200)   800         ['conv2d_97[0][0]']              
 Normalization)                                                                                   
                                                                                                  
 re_lu_97 (ReLU)                (None, 4, 4, 200)    0           ['batch_normalization_144[0][0]']
                                                                                                  
 reshape_94 (Reshape)           (None, 4, 4, 100, 2  0           ['re_lu_97[0][0]']               
                                )                                                                 
                                                                                                  
 permute_47 (Permute)           (None, 4, 4, 2, 100  0           ['reshape_94[0][0]']             
                                )                                                                 
                                                                                                  
 reshape_95 (Reshape)           (None, 4, 4, 200)    0           ['permute_47[0][0]']             
                                                                                                  
 depthwise_conv2d_47 (Depthwise  (None, 4, 4, 200)   2000        ['reshape_95[0][0]']             
 Conv2D)                                                                                          
                                                                                                  
 batch_normalization_145 (Batch  (None, 4, 4, 200)   800         ['depthwise_conv2d_47[0][0]']    
 Normalization)                                                                                   
                                                                                                  
 conv2d_98 (Conv2D)             (None, 4, 4, 800)    80800       ['batch_normalization_145[0][0]']
                                                                                                  
 batch_normalization_146 (Batch  (None, 4, 4, 800)   3200        ['conv2d_98[0][0]']              
 Normalization)                                                                                   
                                                                                                  
 add_38 (Add)                   (None, 4, 4, 800)    0           ['batch_normalization_146[0][0]',
                                                                  're_lu_96[0][0]']               
                                                                                                  
 re_lu_98 (ReLU)                (None, 4, 4, 800)    0           ['add_38[0][0]']                 
                                                                                                  
 global_average_pooling2d_2 (Gl  (None, 800)         0           ['re_lu_98[0][0]']               
 obalAveragePooling2D)                                                                            
                                                                                                  
 flatten_2 (Flatten)            (None, 800)          0           ['global_average_pooling2d_2[0][0
                                                                 ]']                              
                                                                                                  
 dense_7 (Dense)                (None, 512)          410112      ['flatten_2[0][0]']              
                                                                                                  
 dense_8 (Dense)                (None, 2)            1026        ['dense_7[0][0]']                
                                                                                                  
==================================================================================================
Total params: 1,373,986
Trainable params: 1,353,586
Non-trainable params: 20,400
__________________________________________________________________________________________________
…
__________________________________________________________________________________________________
 Layer (type)                   Output Shape         Param #     Connected to                     
==================================================================================================
 input_5 (InputLayer)           [(None, 128, 128, 3  0           []                               
                                )]                                                                
                                                                                                  
 conv2d_132 (Conv2D)            (None, 64, 64, 24)   672         ['input_5[0][0]']                
                                                                                                  
 batch_normalization_196 (Batch  (None, 64, 64, 24)  96          ['conv2d_132[0][0]']             
 Normalization)                                                                                   
                                                                                                  
 re_lu_132 (ReLU)               (None, 64, 64, 24)   0           ['batch_normalization_196[0][0]']
                                                                                                  
 max_pooling2d_4 (MaxPooling2D)  (None, 32, 32, 24)  0           ['re_lu_132[0][0]']              
                                                                                                  
 conv2d_133 (Conv2D)            (None, 32, 32, 50)   650         ['max_pooling2d_4[0][0]']        
                                                                                                  
 batch_normalization_197 (Batch  (None, 32, 32, 50)  200         ['conv2d_133[0][0]']             
 Normalization)                                                                                   
                                                                                                  
 re_lu_133 (ReLU)               (None, 32, 32, 50)   0           ['batch_normalization_197[0][0]']
                                                                                                  
 reshape_128 (Reshape)          (None, 32, 32, 25,   0           ['re_lu_133[0][0]']              
                                2)                                                                
                                                                                                  
 permute_64 (Permute)           (None, 32, 32, 2, 2  0           ['reshape_128[0][0]']            
                                5)                                                                
                                                                                                  
 reshape_129 (Reshape)          (None, 32, 32, 50)   0           ['permute_64[0][0]']             
                                                                                                  
 depthwise_conv2d_64 (Depthwise  (None, 16, 16, 50)  500         ['reshape_129[0][0]']            
 Conv2D)                                                                                          
                                                                                                  
 batch_normalization_198 (Batch  (None, 16, 16, 50)  200         ['depthwise_conv2d_64[0][0]']    
 Normalization)                                                                                   
                                                                                                  
 conv2d_134 (Conv2D)            (None, 16, 16, 176)  4576        ['batch_normalization_198[0][0]']
                                                                                                  
 batch_normalization_199 (Batch  (None, 16, 16, 176)  704        ['conv2d_134[0][0]']             
 Normalization)                                                                                   
                                                                                                  
 average_pooling2d_12 (AverageP  (None, 16, 16, 24)  0           ['max_pooling2d_4[0][0]']        
 ooling2D)                                                                                        
                                                                                                  
 concatenate_12 (Concatenate)   (None, 16, 16, 200)  0           ['batch_normalization_199[0][0]',
                                                                  'average_pooling2d_12[0][0]']   
                                                                                                  
 re_lu_134 (ReLU)               (None, 16, 16, 200)  0           ['concatenate_12[0][0]']         
                                                                                                  
 conv2d_135 (Conv2D)            (None, 16, 16, 50)   5050        ['re_lu_134[0][0]']              
                                                                                                  
 batch_normalization_200 (Batch  (None, 16, 16, 50)  200         ['conv2d_135[0][0]']             
 Normalization)                                                                                   
                                                                                                  
 re_lu_135 (ReLU)               (None, 16, 16, 50)   0           ['batch_normalization_200[0][0]']
                                                                                                  
 reshape_130 (Reshape)          (None, 16, 16, 25,   0           ['re_lu_135[0][0]']              
                                2)                                                                
                                                                                                  
 permute_65 (Permute)           (None, 16, 16, 2, 2  0           ['reshape_130[0][0]']            
                                5)                                                                
                                                                                                  
 reshape_131 (Reshape)          (None, 16, 16, 50)   0           ['permute_65[0][0]']             
                                                                                                  
 depthwise_conv2d_65 (Depthwise  (None, 16, 16, 50)  500         ['reshape_131[0][0]']            
 Conv2D)                                                                                          
                                                                                                  
 batch_normalization_201 (Batch  (None, 16, 16, 50)  200         ['depthwise_conv2d_65[0][0]']    
 Normalization)                                                                                   
                                                                                                  
 conv2d_136 (Conv2D)            (None, 16, 16, 200)  5200        ['batch_normalization_201[0][0]']
                                                                                                  
 batch_normalization_202 (Batch  (None, 16, 16, 200)  800        ['conv2d_136[0][0]']             
 Normalization)                                                                                   
                                                                                                  
 add_52 (Add)                   (None, 16, 16, 200)  0           ['batch_normalization_202[0][0]',
                                                                  're_lu_134[0][0]']              
                                                                                                  
 re_lu_136 (ReLU)               (None, 16, 16, 200)  0           ['add_52[0][0]']                 
                                                                                                  
 conv2d_137 (Conv2D)            (None, 16, 16, 50)   5050        ['re_lu_136[0][0]']              
                                                                                                  
 batch_normalization_203 (Batch  (None, 16, 16, 50)  200         ['conv2d_137[0][0]']             
 Normalization)                                                                                   
                                                                                                  
 re_lu_137 (ReLU)               (None, 16, 16, 50)   0           ['batch_normalization_203[0][0]']
                                                                                                  
 reshape_132 (Reshape)          (None, 16, 16, 25,   0           ['re_lu_137[0][0]']              
                                2)                                                                
                                                                                                  
 permute_66 (Permute)           (None, 16, 16, 2, 2  0           ['reshape_132[0][0]']            
                                5)                                                                
                                                                                                  
 reshape_133 (Reshape)          (None, 16, 16, 50)   0           ['permute_66[0][0]']             
                                                                                                  
 depthwise_conv2d_66 (Depthwise  (None, 16, 16, 50)  500         ['reshape_133[0][0]']            
 Conv2D)                                                                                          
                                                                                                  
 batch_normalization_204 (Batch  (None, 16, 16, 50)  200         ['depthwise_conv2d_66[0][0]']    
 Normalization)                                                                                   
                                                                                                  
 conv2d_138 (Conv2D)            (None, 16, 16, 200)  5200        ['batch_normalization_204[0][0]']
                                                                                                  
 batch_normalization_205 (Batch  (None, 16, 16, 200)  800        ['conv2d_138[0][0]']             
 Normalization)                                                                                   
                                                                                                  
 add_53 (Add)                   (None, 16, 16, 200)  0           ['batch_normalization_205[0][0]',
                                                                  're_lu_136[0][0]']              
                                                                                                  
 re_lu_138 (ReLU)               (None, 16, 16, 200)  0           ['add_53[0][0]']                 
                                                                                                  
 conv2d_139 (Conv2D)            (None, 16, 16, 50)   5050        ['re_lu_138[0][0]']              
                                                                                                  
 batch_normalization_206 (Batch  (None, 16, 16, 50)  200         ['conv2d_139[0][0]']             
 Normalization)                                                                                   
                                                                                                  
 re_lu_139 (ReLU)               (None, 16, 16, 50)   0           ['batch_normalization_206[0][0]']
                                                                                                  
 reshape_134 (Reshape)          (None, 16, 16, 25,   0           ['re_lu_139[0][0]']              
                                2)                                                                
                                                                                                  
 permute_67 (Permute)           (None, 16, 16, 2, 2  0           ['reshape_134[0][0]']            
                                5)                                                                
                                                                                                  
 reshape_135 (Reshape)          (None, 16, 16, 50)   0           ['permute_67[0][0]']             
                                                                                                  
 depthwise_conv2d_67 (Depthwise  (None, 16, 16, 50)  500         ['reshape_135[0][0]']            
 Conv2D)                                                                                          
                                                                                                  
 batch_normalization_207 (Batch  (None, 16, 16, 50)  200         ['depthwise_conv2d_67[0][0]']    
 Normalization)                                                                                   
                                                                                                  
 conv2d_140 (Conv2D)            (None, 16, 16, 200)  5200        ['batch_normalization_207[0][0]']
                                                                                                  
 batch_normalization_208 (Batch  (None, 16, 16, 200)  800        ['conv2d_140[0][0]']             
 Normalization)                                                                                   
                                                                                                  
 add_54 (Add)                   (None, 16, 16, 200)  0           ['batch_normalization_208[0][0]',
                                                                  're_lu_138[0][0]']              
                                                                                                  
 re_lu_140 (ReLU)               (None, 16, 16, 200)  0           ['add_54[0][0]']                 
                                                                                                  
 conv2d_141 (Conv2D)            (None, 16, 16, 100)  10100       ['re_lu_140[0][0]']              
                                                                                                  
 batch_normalization_209 (Batch  (None, 16, 16, 100)  400        ['conv2d_141[0][0]']             
 Normalization)                                                                                   
                                                                                                  
 re_lu_141 (ReLU)               (None, 16, 16, 100)  0           ['batch_normalization_209[0][0]']
                                                                                                  
 reshape_136 (Reshape)          (None, 16, 16, 50,   0           ['re_lu_141[0][0]']              
                                2)                                                                
                                                                                                  
 permute_68 (Permute)           (None, 16, 16, 2, 5  0           ['reshape_136[0][0]']            
                                0)                                                                
                                                                                                  
 reshape_137 (Reshape)          (None, 16, 16, 100)  0           ['permute_68[0][0]']             
                                                                                                  
 depthwise_conv2d_68 (Depthwise  (None, 8, 8, 100)   1000        ['reshape_137[0][0]']            
 Conv2D)                                                                                          
                                                                                                  
 batch_normalization_210 (Batch  (None, 8, 8, 100)   400         ['depthwise_conv2d_68[0][0]']    
 Normalization)                                                                                   
                                                                                                  
 conv2d_142 (Conv2D)            (None, 8, 8, 200)    10200       ['batch_normalization_210[0][0]']
                                                                                                  
 batch_normalization_211 (Batch  (None, 8, 8, 200)   800         ['conv2d_142[0][0]']             
 Normalization)                                                                                   
                                                                                                  
 average_pooling2d_13 (AverageP  (None, 8, 8, 200)   0           ['re_lu_140[0][0]']              
 ooling2D)                                                                                        
                                                                                                  
 concatenate_13 (Concatenate)   (None, 8, 8, 400)    0           ['batch_normalization_211[0][0]',
                                                                  'average_pooling2d_13[0][0]']   
                                                                                                  
 re_lu_142 (ReLU)               (None, 8, 8, 400)    0           ['concatenate_13[0][0]']         
                                                                                                  
 conv2d_143 (Conv2D)            (None, 8, 8, 100)    20100       ['re_lu_142[0][0]']              
                                                                                                  
 batch_normalization_212 (Batch  (None, 8, 8, 100)   400         ['conv2d_143[0][0]']             
 Normalization)                                                                                   
                                                                                                  
 re_lu_143 (ReLU)               (None, 8, 8, 100)    0           ['batch_normalization_212[0][0]']
                                                                                                  
 reshape_138 (Reshape)          (None, 8, 8, 50, 2)  0           ['re_lu_143[0][0]']              
                                                                                                  
 permute_69 (Permute)           (None, 8, 8, 2, 50)  0           ['reshape_138[0][0]']            
                                                                                                  
 reshape_139 (Reshape)          (None, 8, 8, 100)    0           ['permute_69[0][0]']             
                                                                                                  
 depthwise_conv2d_69 (Depthwise  (None, 8, 8, 100)   1000        ['reshape_139[0][0]']            
 Conv2D)                                                                                          
                                                                                                  
 batch_normalization_213 (Batch  (None, 8, 8, 100)   400         ['depthwise_conv2d_69[0][0]']    
 Normalization)                                                                                   
                                                                                                  
 conv2d_144 (Conv2D)            (None, 8, 8, 400)    20400       ['batch_normalization_213[0][0]']
                                                                                                  
 batch_normalization_214 (Batch  (None, 8, 8, 400)   1600        ['conv2d_144[0][0]']             
 Normalization)                                                                                   
                                                                                                  
 add_55 (Add)                   (None, 8, 8, 400)    0           ['batch_normalization_214[0][0]',
                                                                  're_lu_142[0][0]']              
                                                                                                  
 re_lu_144 (ReLU)               (None, 8, 8, 400)    0           ['add_55[0][0]']                 
                                                                                                  
 conv2d_145 (Conv2D)            (None, 8, 8, 100)    20100       ['re_lu_144[0][0]']              
                                                                                                  
 batch_normalization_215 (Batch  (None, 8, 8, 100)   400         ['conv2d_145[0][0]']             
 Normalization)                                                                                   
                                                                                                  
 re_lu_145 (ReLU)               (None, 8, 8, 100)    0           ['batch_normalization_215[0][0]']
                                                                                                  
 reshape_140 (Reshape)          (None, 8, 8, 50, 2)  0           ['re_lu_145[0][0]']              
                                                                                                  
 permute_70 (Permute)           (None, 8, 8, 2, 50)  0           ['reshape_140[0][0]']            
                                                                                                  
 reshape_141 (Reshape)          (None, 8, 8, 100)    0           ['permute_70[0][0]']             
                                                                                                  
 depthwise_conv2d_70 (Depthwise  (None, 8, 8, 100)   1000        ['reshape_141[0][0]']            
 Conv2D)                                                                                          
                                                                                                  
 batch_normalization_216 (Batch  (None, 8, 8, 100)   400         ['depthwise_conv2d_70[0][0]']    
 Normalization)                                                                                   
                                                                                                  
 conv2d_146 (Conv2D)            (None, 8, 8, 400)    20400       ['batch_normalization_216[0][0]']
                                                                                                  
 batch_normalization_217 (Batch  (None, 8, 8, 400)   1600        ['conv2d_146[0][0]']             
 Normalization)                                                                                   
                                                                                                  
 add_56 (Add)                   (None, 8, 8, 400)    0           ['batch_normalization_217[0][0]',
                                                                  're_lu_144[0][0]']              
                                                                                                  
 re_lu_146 (ReLU)               (None, 8, 8, 400)    0           ['add_56[0][0]']                 
                                                                                                  
 conv2d_147 (Conv2D)            (None, 8, 8, 100)    20100       ['re_lu_146[0][0]']              
                                                                                                  
 batch_normalization_218 (Batch  (None, 8, 8, 100)   400         ['conv2d_147[0][0]']             
 Normalization)                                                                                   
                                                                                                  
 re_lu_147 (ReLU)               (None, 8, 8, 100)    0           ['batch_normalization_218[0][0]']
                                                                                                  
 reshape_142 (Reshape)          (None, 8, 8, 50, 2)  0           ['re_lu_147[0][0]']              
                                                                                                  
 permute_71 (Permute)           (None, 8, 8, 2, 50)  0           ['reshape_142[0][0]']            
                                                                                                  
 reshape_143 (Reshape)          (None, 8, 8, 100)    0           ['permute_71[0][0]']             
                                                                                                  
 depthwise_conv2d_71 (Depthwise  (None, 8, 8, 100)   1000        ['reshape_143[0][0]']            
 Conv2D)                                                                                          
                                                                                                  
 batch_normalization_219 (Batch  (None, 8, 8, 100)   400         ['depthwise_conv2d_71[0][0]']    
 Normalization)                                                                                   
                                                                                                  
 conv2d_148 (Conv2D)            (None, 8, 8, 400)    20400       ['batch_normalization_219[0][0]']
                                                                                                  
 batch_normalization_220 (Batch  (None, 8, 8, 400)   1600        ['conv2d_148[0][0]']             
 Normalization)                                                                                   
                                                                                                  
 add_57 (Add)                   (None, 8, 8, 400)    0           ['batch_normalization_220[0][0]',
                                                                  're_lu_146[0][0]']              
                                                                                                  
 re_lu_148 (ReLU)               (None, 8, 8, 400)    0           ['add_57[0][0]']                 
                                                                                                  
 conv2d_149 (Conv2D)            (None, 8, 8, 100)    20100       ['re_lu_148[0][0]']              
                                                                                                  
 batch_normalization_221 (Batch  (None, 8, 8, 100)   400         ['conv2d_149[0][0]']             
 Normalization)                                                                                   
                                                                                                  
 re_lu_149 (ReLU)               (None, 8, 8, 100)    0           ['batch_normalization_221[0][0]']
                                                                                                  
 reshape_144 (Reshape)          (None, 8, 8, 50, 2)  0           ['re_lu_149[0][0]']              
                                                                                                  
 permute_72 (Permute)           (None, 8, 8, 2, 50)  0           ['reshape_144[0][0]']            
                                                                                                  
 reshape_145 (Reshape)          (None, 8, 8, 100)    0           ['permute_72[0][0]']             
                                                                                                  
 depthwise_conv2d_72 (Depthwise  (None, 8, 8, 100)   1000        ['reshape_145[0][0]']            
 Conv2D)                                                                                          
                                                                                                  
 batch_normalization_222 (Batch  (None, 8, 8, 100)   400         ['depthwise_conv2d_72[0][0]']    
 Normalization)                                                                                   
                                                                                                  
 conv2d_150 (Conv2D)            (None, 8, 8, 400)    20400       ['batch_normalization_222[0][0]']
                                                                                                  
 batch_normalization_223 (Batch  (None, 8, 8, 400)   1600        ['conv2d_150[0][0]']             
 Normalization)                                                                                   
                                                                                                  
 add_58 (Add)                   (None, 8, 8, 400)    0           ['batch_normalization_223[0][0]',
                                                                  're_lu_148[0][0]']              
                                                                                                  
 re_lu_150 (ReLU)               (None, 8, 8, 400)    0           ['add_58[0][0]']                 
                                                                                                  
 conv2d_151 (Conv2D)            (None, 8, 8, 100)    20100       ['re_lu_150[0][0]']              
                                                                                                  
 batch_normalization_224 (Batch  (None, 8, 8, 100)   400         ['conv2d_151[0][0]']             
 Normalization)                                                                                   
                                                                                                  
 re_lu_151 (ReLU)               (None, 8, 8, 100)    0           ['batch_normalization_224[0][0]']
                                                                                                  
 reshape_146 (Reshape)          (None, 8, 8, 50, 2)  0           ['re_lu_151[0][0]']              
                                                                                                  
 permute_73 (Permute)           (None, 8, 8, 2, 50)  0           ['reshape_146[0][0]']            
                                                                                                  
 reshape_147 (Reshape)          (None, 8, 8, 100)    0           ['permute_73[0][0]']             
                                                                                                  
 depthwise_conv2d_73 (Depthwise  (None, 8, 8, 100)   1000        ['reshape_147[0][0]']            
 Conv2D)                                                                                          
                                                                                                  
 batch_normalization_225 (Batch  (None, 8, 8, 100)   400         ['depthwise_conv2d_73[0][0]']    
 Normalization)                                                                                   
                                                                                                  
 conv2d_152 (Conv2D)            (None, 8, 8, 400)    20400       ['batch_normalization_225[0][0]']
                                                                                                  
 batch_normalization_226 (Batch  (None, 8, 8, 400)   1600        ['conv2d_152[0][0]']             
 Normalization)                                                                                   
                                                                                                  
 add_59 (Add)                   (None, 8, 8, 400)    0           ['batch_normalization_226[0][0]',
                                                                  're_lu_150[0][0]']              
                                                                                                  
 re_lu_152 (ReLU)               (None, 8, 8, 400)    0           ['add_59[0][0]']                 
                                                                                                  
 conv2d_153 (Conv2D)            (None, 8, 8, 100)    20100       ['re_lu_152[0][0]']              
                                                                                                  
 batch_normalization_227 (Batch  (None, 8, 8, 100)   400         ['conv2d_153[0][0]']             
 Normalization)                                                                                   
                                                                                                  
 re_lu_153 (ReLU)               (None, 8, 8, 100)    0           ['batch_normalization_227[0][0]']
                                                                                                  
 reshape_148 (Reshape)          (None, 8, 8, 50, 2)  0           ['re_lu_153[0][0]']              
                                                                                                  
 permute_74 (Permute)           (None, 8, 8, 2, 50)  0           ['reshape_148[0][0]']            
                                                                                                  
 reshape_149 (Reshape)          (None, 8, 8, 100)    0           ['permute_74[0][0]']             
                                                                                                  
 depthwise_conv2d_74 (Depthwise  (None, 8, 8, 100)   1000        ['reshape_149[0][0]']            
 Conv2D)                                                                                          
                                                                                                  
 batch_normalization_228 (Batch  (None, 8, 8, 100)   400         ['depthwise_conv2d_74[0][0]']    
 Normalization)                                                                                   
                                                                                                  
 conv2d_154 (Conv2D)            (None, 8, 8, 400)    20400       ['batch_normalization_228[0][0]']
                                                                                                  
 batch_normalization_229 (Batch  (None, 8, 8, 400)   1600        ['conv2d_154[0][0]']             
 Normalization)                                                                                   
                                                                                                  
 add_60 (Add)                   (None, 8, 8, 400)    0           ['batch_normalization_229[0][0]',
                                                                  're_lu_152[0][0]']              
                                                                                                  
 re_lu_154 (ReLU)               (None, 8, 8, 400)    0           ['add_60[0][0]']                 
                                                                                                  
 conv2d_155 (Conv2D)            (None, 8, 8, 100)    20100       ['re_lu_154[0][0]']              
                                                                                                  
 batch_normalization_230 (Batch  (None, 8, 8, 100)   400         ['conv2d_155[0][0]']             
 Normalization)                                                                                   
                                                                                                  
 re_lu_155 (ReLU)               (None, 8, 8, 100)    0           ['batch_normalization_230[0][0]']
                                                                                                  
 reshape_150 (Reshape)          (None, 8, 8, 50, 2)  0           ['re_lu_155[0][0]']              
                                                                                                  
 permute_75 (Permute)           (None, 8, 8, 2, 50)  0           ['reshape_150[0][0]']            
                                                                                                  
 reshape_151 (Reshape)          (None, 8, 8, 100)    0           ['permute_75[0][0]']             
                                                                                                  
 depthwise_conv2d_75 (Depthwise  (None, 8, 8, 100)   1000        ['reshape_151[0][0]']            
 Conv2D)                                                                                          
                                                                                                  
 batch_normalization_231 (Batch  (None, 8, 8, 100)   400         ['depthwise_conv2d_75[0][0]']    
 Normalization)                                                                                   
                                                                                                  
 conv2d_156 (Conv2D)            (None, 8, 8, 400)    20400       ['batch_normalization_231[0][0]']
                                                                                                  
 batch_normalization_232 (Batch  (None, 8, 8, 400)   1600        ['conv2d_156[0][0]']             
 Normalization)                                                                                   
                                                                                                  
 add_61 (Add)                   (None, 8, 8, 400)    0           ['batch_normalization_232[0][0]',
                                                                  're_lu_154[0][0]']              
                                                                                                  
 re_lu_156 (ReLU)               (None, 8, 8, 400)    0           ['add_61[0][0]']                 
                                                                                                  
 conv2d_157 (Conv2D)            (None, 8, 8, 200)    40200       ['re_lu_156[0][0]']              
                                                                                                  
 batch_normalization_233 (Batch  (None, 8, 8, 200)   800         ['conv2d_157[0][0]']             
 Normalization)                                                                                   
                                                                                                  
 re_lu_157 (ReLU)               (None, 8, 8, 200)    0           ['batch_normalization_233[0][0]']
                                                                                                  
 reshape_152 (Reshape)          (None, 8, 8, 100, 2  0           ['re_lu_157[0][0]']              
                                )                                                                 
                                                                                                  
 permute_76 (Permute)           (None, 8, 8, 2, 100  0           ['reshape_152[0][0]']            
                                )                                                                 
                                                                                                  
 reshape_153 (Reshape)          (None, 8, 8, 200)    0           ['permute_76[0][0]']             
                                                                                                  
 depthwise_conv2d_76 (Depthwise  (None, 4, 4, 200)   2000        ['reshape_153[0][0]']            
 Conv2D)                                                                                          
                                                                                                  
 batch_normalization_234 (Batch  (None, 4, 4, 200)   800         ['depthwise_conv2d_76[0][0]']    
 Normalization)                                                                                   
                                                                                                  
 conv2d_158 (Conv2D)            (None, 4, 4, 400)    40400       ['batch_normalization_234[0][0]']
                                                                                                  
 batch_normalization_235 (Batch  (None, 4, 4, 400)   1600        ['conv2d_158[0][0]']             
 Normalization)                                                                                   
                                                                                                  
 average_pooling2d_14 (AverageP  (None, 4, 4, 400)   0           ['re_lu_156[0][0]']              
 ooling2D)                                                                                        
                                                                                                  
 concatenate_14 (Concatenate)   (None, 4, 4, 800)    0           ['batch_normalization_235[0][0]',
                                                                  'average_pooling2d_14[0][0]']   
                                                                                                  
 re_lu_158 (ReLU)               (None, 4, 4, 800)    0           ['concatenate_14[0][0]']         
                                                                                                  
 conv2d_159 (Conv2D)            (None, 4, 4, 200)    80200       ['re_lu_158[0][0]']              
                                                                                                  
 batch_normalization_236 (Batch  (None, 4, 4, 200)   800         ['conv2d_159[0][0]']             
 Normalization)                                                                                   
                                                                                                  
 re_lu_159 (ReLU)               (None, 4, 4, 200)    0           ['batch_normalization_236[0][0]']
                                                                                                  
 reshape_154 (Reshape)          (None, 4, 4, 100, 2  0           ['re_lu_159[0][0]']              
                                )                                                                 
                                                                                                  
 permute_77 (Permute)           (None, 4, 4, 2, 100  0           ['reshape_154[0][0]']            
                                )                                                                 
                                                                                                  
 reshape_155 (Reshape)          (None, 4, 4, 200)    0           ['permute_77[0][0]']             
                                                                                                  
 depthwise_conv2d_77 (Depthwise  (None, 4, 4, 200)   2000        ['reshape_155[0][0]']            
 Conv2D)                                                                                          
                                                                                                  
 batch_normalization_237 (Batch  (None, 4, 4, 200)   800         ['depthwise_conv2d_77[0][0]']    
 Normalization)                                                                                   
                                                                                                  
 conv2d_160 (Conv2D)            (None, 4, 4, 800)    80800       ['batch_normalization_237[0][0]']
                                                                                                  
 batch_normalization_238 (Batch  (None, 4, 4, 800)   3200        ['conv2d_160[0][0]']             
 Normalization)                                                                                   
                                                                                                  
 add_62 (Add)                   (None, 4, 4, 800)    0           ['batch_normalization_238[0][0]',
                                                                  're_lu_158[0][0]']              
                                                                                                  
 re_lu_160 (ReLU)               (None, 4, 4, 800)    0           ['add_62[0][0]']                 
                                                                                                  
 conv2d_161 (Conv2D)            (None, 4, 4, 200)    80200       ['re_lu_160[0][0]']              
                                                                                                  
 batch_normalization_239 (Batch  (None, 4, 4, 200)   800         ['conv2d_161[0][0]']             
 Normalization)                                                                                   
                                                                                                  
 re_lu_161 (ReLU)               (None, 4, 4, 200)    0           ['batch_normalization_239[0][0]']
                                                                                                  
 reshape_156 (Reshape)          (None, 4, 4, 100, 2  0           ['re_lu_161[0][0]']              
                                )                                                                 
                                                                                                  
 permute_78 (Permute)           (None, 4, 4, 2, 100  0           ['reshape_156[0][0]']            
                                )                                                                 
                                                                                                  
 reshape_157 (Reshape)          (None, 4, 4, 200)    0           ['permute_78[0][0]']             
                                                                                                  
 depthwise_conv2d_78 (Depthwise  (None, 4, 4, 200)   2000        ['reshape_157[0][0]']            
 Conv2D)                                                                                          
                                                                                                  
 batch_normalization_240 (Batch  (None, 4, 4, 200)   800         ['depthwise_conv2d_78[0][0]']    
 Normalization)                                                                                   
                                                                                                  
 conv2d_162 (Conv2D)            (None, 4, 4, 800)    80800       ['batch_normalization_240[0][0]']
                                                                                                  
 batch_normalization_241 (Batch  (None, 4, 4, 800)   3200        ['conv2d_162[0][0]']             
 Normalization)                                                                                   
                                                                                                  
 add_63 (Add)                   (None, 4, 4, 800)    0           ['batch_normalization_241[0][0]',
                                                                  're_lu_160[0][0]']              
                                                                                                  
 re_lu_162 (ReLU)               (None, 4, 4, 800)    0           ['add_63[0][0]']                 
                                                                                                  
 conv2d_163 (Conv2D)            (None, 4, 4, 200)    80200       ['re_lu_162[0][0]']              
                                                                                                  
 batch_normalization_242 (Batch  (None, 4, 4, 200)   800         ['conv2d_163[0][0]']             
 Normalization)                                                                                   
                                                                                                  
 re_lu_163 (ReLU)               (None, 4, 4, 200)    0           ['batch_normalization_242[0][0]']
                                                                                                  
 reshape_158 (Reshape)          (None, 4, 4, 100, 2  0           ['re_lu_163[0][0]']              
                                )                                                                 
                                                                                                  
 permute_79 (Permute)           (None, 4, 4, 2, 100  0           ['reshape_158[0][0]']            
                                )                                                                 
                                                                                                  
 reshape_159 (Reshape)          (None, 4, 4, 200)    0           ['permute_79[0][0]']             
                                                                                                  
 depthwise_conv2d_79 (Depthwise  (None, 4, 4, 200)   2000        ['reshape_159[0][0]']            
 Conv2D)                                                                                          
                                                                                                  
 batch_normalization_243 (Batch  (None, 4, 4, 200)   800         ['depthwise_conv2d_79[0][0]']    
 Normalization)                                                                                   
                                                                                                  
 conv2d_164 (Conv2D)            (None, 4, 4, 800)    80800       ['batch_normalization_243[0][0]']
                                                                                                  
 batch_normalization_244 (Batch  (None, 4, 4, 800)   3200        ['conv2d_164[0][0]']             
 Normalization)                                                                                   
                                                                                                  
 add_64 (Add)                   (None, 4, 4, 800)    0           ['batch_normalization_244[0][0]',
                                                                  're_lu_162[0][0]']              
                                                                                                  
 re_lu_164 (ReLU)               (None, 4, 4, 800)    0           ['add_64[0][0]']                 
                                                                                                  
 global_average_pooling2d_4 (Gl  (None, 800)         0           ['re_lu_164[0][0]']              
 obalAveragePooling2D)                                                                            
                                                                                                  
 flatten_4 (Flatten)            (None, 800)          0           ['global_average_pooling2d_4[0][0
                                                                 ]']                              
                                                                                                  
 dense_13 (Dense)               (None, 512)          410112      ['flatten_4[0][0]']              
                                                                                                  
 dense_14 (Dense)               (None, 3)            1539        ['dense_13[0][0]']               
                                                                                                  
==================================================================================================
Total params: 1,374,499
Trainable params: 1,354,099
Non-trainable params: 20,400
__________________________________________________________________________________________________
…
