…
__________________________________________________________________________________________________
 Layer (type)                   Output Shape         Param #     Connected to                     
==================================================================================================
 input_1 (InputLayer)           [(None, 128, 128, 3  0           []                               
                                )]                                                                
                                                                                                  
 conv2d (Conv2D)                (None, 64, 64, 24)   672         ['input_1[0][0]']                
                                                                                                  
 batch_normalization (BatchNorm  (None, 64, 64, 24)  96          ['conv2d[0][0]']                 
 alization)                                                                                       
                                                                                                  
 re_lu (ReLU)                   (None, 64, 64, 24)   0           ['batch_normalization[0][0]']    
                                                                                                  
 max_pooling2d (MaxPooling2D)   (None, 32, 32, 24)   0           ['re_lu[0][0]']                  
                                                                                                  
 conv2d_1 (Conv2D)              (None, 32, 32, 50)   650         ['max_pooling2d[0][0]']          
                                                                                                  
 batch_normalization_1 (BatchNo  (None, 32, 32, 50)  200         ['conv2d_1[0][0]']               
 rmalization)                                                                                     
                                                                                                  
 re_lu_1 (ReLU)                 (None, 32, 32, 50)   0           ['batch_normalization_1[0][0]']  
                                                                                                  
 reshape (Reshape)              (None, 32, 32, 25,   0           ['re_lu_1[0][0]']                
                                2)                                                                
                                                                                                  
 permute (Permute)              (None, 32, 32, 2, 2  0           ['reshape[0][0]']                
                                5)                                                                
                                                                                                  
 reshape_1 (Reshape)            (None, 32, 32, 50)   0           ['permute[0][0]']                
                                                                                                  
 depthwise_conv2d (DepthwiseCon  (None, 16, 16, 50)  500         ['reshape_1[0][0]']              
 v2D)                                                                                             
                                                                                                  
 batch_normalization_2 (BatchNo  (None, 16, 16, 50)  200         ['depthwise_conv2d[0][0]']       
 rmalization)                                                                                     
                                                                                                  
 conv2d_2 (Conv2D)              (None, 16, 16, 176)  4576        ['batch_normalization_2[0][0]']  
                                                                                                  
 batch_normalization_3 (BatchNo  (None, 16, 16, 176)  704        ['conv2d_2[0][0]']               
 rmalization)                                                                                     
                                                                                                  
 average_pooling2d (AveragePool  (None, 16, 16, 24)  0           ['max_pooling2d[0][0]']          
 ing2D)                                                                                           
                                                                                                  
 concatenate (Concatenate)      (None, 16, 16, 200)  0           ['batch_normalization_3[0][0]',  
                                                                  'average_pooling2d[0][0]']      
                                                                                                  
 re_lu_2 (ReLU)                 (None, 16, 16, 200)  0           ['concatenate[0][0]']            
                                                                                                  
 conv2d_3 (Conv2D)              (None, 16, 16, 50)   5050        ['re_lu_2[0][0]']                
                                                                                                  
 batch_normalization_4 (BatchNo  (None, 16, 16, 50)  200         ['conv2d_3[0][0]']               
 rmalization)                                                                                     
                                                                                                  
 re_lu_3 (ReLU)                 (None, 16, 16, 50)   0           ['batch_normalization_4[0][0]']  
                                                                                                  
 reshape_2 (Reshape)            (None, 16, 16, 25,   0           ['re_lu_3[0][0]']                
                                2)                                                                
                                                                                                  
 permute_1 (Permute)            (None, 16, 16, 2, 2  0           ['reshape_2[0][0]']              
                                5)                                                                
                                                                                                  
 reshape_3 (Reshape)            (None, 16, 16, 50)   0           ['permute_1[0][0]']              
                                                                                                  
 depthwise_conv2d_1 (DepthwiseC  (None, 16, 16, 50)  500         ['reshape_3[0][0]']              
 onv2D)                                                                                           
                                                                                                  
 batch_normalization_5 (BatchNo  (None, 16, 16, 50)  200         ['depthwise_conv2d_1[0][0]']     
 rmalization)                                                                                     
                                                                                                  
 conv2d_4 (Conv2D)              (None, 16, 16, 200)  5200        ['batch_normalization_5[0][0]']  
                                                                                                  
 batch_normalization_6 (BatchNo  (None, 16, 16, 200)  800        ['conv2d_4[0][0]']               
 rmalization)                                                                                     
                                                                                                  
 add (Add)                      (None, 16, 16, 200)  0           ['batch_normalization_6[0][0]',  
                                                                  're_lu_2[0][0]']                
                                                                                                  
 re_lu_4 (ReLU)                 (None, 16, 16, 200)  0           ['add[0][0]']                    
                                                                                                  
 conv2d_5 (Conv2D)              (None, 16, 16, 50)   5050        ['re_lu_4[0][0]']                
                                                                                                  
 batch_normalization_7 (BatchNo  (None, 16, 16, 50)  200         ['conv2d_5[0][0]']               
 rmalization)                                                                                     
                                                                                                  
 re_lu_5 (ReLU)                 (None, 16, 16, 50)   0           ['batch_normalization_7[0][0]']  
                                                                                                  
 reshape_4 (Reshape)            (None, 16, 16, 25,   0           ['re_lu_5[0][0]']                
                                2)                                                                
                                                                                                  
 permute_2 (Permute)            (None, 16, 16, 2, 2  0           ['reshape_4[0][0]']              
                                5)                                                                
                                                                                                  
 reshape_5 (Reshape)            (None, 16, 16, 50)   0           ['permute_2[0][0]']              
                                                                                                  
 depthwise_conv2d_2 (DepthwiseC  (None, 16, 16, 50)  500         ['reshape_5[0][0]']              
 onv2D)                                                                                           
                                                                                                  
 batch_normalization_8 (BatchNo  (None, 16, 16, 50)  200         ['depthwise_conv2d_2[0][0]']     
 rmalization)                                                                                     
                                                                                                  
 conv2d_6 (Conv2D)              (None, 16, 16, 200)  5200        ['batch_normalization_8[0][0]']  
                                                                                                  
 batch_normalization_9 (BatchNo  (None, 16, 16, 200)  800        ['conv2d_6[0][0]']               
 rmalization)                                                                                     
                                                                                                  
 add_1 (Add)                    (None, 16, 16, 200)  0           ['batch_normalization_9[0][0]',  
                                                                  're_lu_4[0][0]']                
                                                                                                  
 re_lu_6 (ReLU)                 (None, 16, 16, 200)  0           ['add_1[0][0]']                  
                                                                                                  
 conv2d_7 (Conv2D)              (None, 16, 16, 50)   5050        ['re_lu_6[0][0]']                
                                                                                                  
 batch_normalization_10 (BatchN  (None, 16, 16, 50)  200         ['conv2d_7[0][0]']               
 ormalization)                                                                                    
                                                                                                  
 re_lu_7 (ReLU)                 (None, 16, 16, 50)   0           ['batch_normalization_10[0][0]'] 
                                                                                                  
 reshape_6 (Reshape)            (None, 16, 16, 25,   0           ['re_lu_7[0][0]']                
                                2)                                                                
                                                                                                  
 permute_3 (Permute)            (None, 16, 16, 2, 2  0           ['reshape_6[0][0]']              
                                5)                                                                
                                                                                                  
 reshape_7 (Reshape)            (None, 16, 16, 50)   0           ['permute_3[0][0]']              
                                                                                                  
 depthwise_conv2d_3 (DepthwiseC  (None, 16, 16, 50)  500         ['reshape_7[0][0]']              
 onv2D)                                                                                           
                                                                                                  
 batch_normalization_11 (BatchN  (None, 16, 16, 50)  200         ['depthwise_conv2d_3[0][0]']     
 ormalization)                                                                                    
                                                                                                  
 conv2d_8 (Conv2D)              (None, 16, 16, 200)  5200        ['batch_normalization_11[0][0]'] 
                                                                                                  
 batch_normalization_12 (BatchN  (None, 16, 16, 200)  800        ['conv2d_8[0][0]']               
 ormalization)                                                                                    
                                                                                                  
 add_2 (Add)                    (None, 16, 16, 200)  0           ['batch_normalization_12[0][0]', 
                                                                  're_lu_6[0][0]']                
                                                                                                  
 re_lu_8 (ReLU)                 (None, 16, 16, 200)  0           ['add_2[0][0]']                  
                                                                                                  
 conv2d_9 (Conv2D)              (None, 16, 16, 100)  10100       ['re_lu_8[0][0]']                
                                                                                                  
 batch_normalization_13 (BatchN  (None, 16, 16, 100)  400        ['conv2d_9[0][0]']               
 ormalization)                                                                                    
                                                                                                  
 re_lu_9 (ReLU)                 (None, 16, 16, 100)  0           ['batch_normalization_13[0][0]'] 
                                                                                                  
 reshape_8 (Reshape)            (None, 16, 16, 50,   0           ['re_lu_9[0][0]']                
                                2)                                                                
                                                                                                  
 permute_4 (Permute)            (None, 16, 16, 2, 5  0           ['reshape_8[0][0]']              
                                0)                                                                
                                                                                                  
 reshape_9 (Reshape)            (None, 16, 16, 100)  0           ['permute_4[0][0]']              
                                                                                                  
 depthwise_conv2d_4 (DepthwiseC  (None, 8, 8, 100)   1000        ['reshape_9[0][0]']              
 onv2D)                                                                                           
                                                                                                  
 batch_normalization_14 (BatchN  (None, 8, 8, 100)   400         ['depthwise_conv2d_4[0][0]']     
 ormalization)                                                                                    
                                                                                                  
 conv2d_10 (Conv2D)             (None, 8, 8, 200)    10200       ['batch_normalization_14[0][0]'] 
                                                                                                  
 batch_normalization_15 (BatchN  (None, 8, 8, 200)   800         ['conv2d_10[0][0]']              
 ormalization)                                                                                    
                                                                                                  
 average_pooling2d_1 (AveragePo  (None, 8, 8, 200)   0           ['re_lu_8[0][0]']                
 oling2D)                                                                                         
                                                                                                  
 concatenate_1 (Concatenate)    (None, 8, 8, 400)    0           ['batch_normalization_15[0][0]', 
                                                                  'average_pooling2d_1[0][0]']    
                                                                                                  
 re_lu_10 (ReLU)                (None, 8, 8, 400)    0           ['concatenate_1[0][0]']          
                                                                                                  
 conv2d_11 (Conv2D)             (None, 8, 8, 100)    20100       ['re_lu_10[0][0]']               
                                                                                                  
 batch_normalization_16 (BatchN  (None, 8, 8, 100)   400         ['conv2d_11[0][0]']              
 ormalization)                                                                                    
                                                                                                  
 re_lu_11 (ReLU)                (None, 8, 8, 100)    0           ['batch_normalization_16[0][0]'] 
                                                                                                  
 reshape_10 (Reshape)           (None, 8, 8, 50, 2)  0           ['re_lu_11[0][0]']               
                                                                                                  
 permute_5 (Permute)            (None, 8, 8, 2, 50)  0           ['reshape_10[0][0]']             
                                                                                                  
 reshape_11 (Reshape)           (None, 8, 8, 100)    0           ['permute_5[0][0]']              
                                                                                                  
 depthwise_conv2d_5 (DepthwiseC  (None, 8, 8, 100)   1000        ['reshape_11[0][0]']             
 onv2D)                                                                                           
                                                                                                  
 batch_normalization_17 (BatchN  (None, 8, 8, 100)   400         ['depthwise_conv2d_5[0][0]']     
 ormalization)                                                                                    
                                                                                                  
 conv2d_12 (Conv2D)             (None, 8, 8, 400)    20400       ['batch_normalization_17[0][0]'] 
                                                                                                  
 batch_normalization_18 (BatchN  (None, 8, 8, 400)   1600        ['conv2d_12[0][0]']              
 ormalization)                                                                                    
                                                                                                  
 add_3 (Add)                    (None, 8, 8, 400)    0           ['batch_normalization_18[0][0]', 
                                                                  're_lu_10[0][0]']               
                                                                                                  
 re_lu_12 (ReLU)                (None, 8, 8, 400)    0           ['add_3[0][0]']                  
                                                                                                  
 conv2d_13 (Conv2D)             (None, 8, 8, 100)    20100       ['re_lu_12[0][0]']               
                                                                                                  
 batch_normalization_19 (BatchN  (None, 8, 8, 100)   400         ['conv2d_13[0][0]']              
 ormalization)                                                                                    
                                                                                                  
 re_lu_13 (ReLU)                (None, 8, 8, 100)    0           ['batch_normalization_19[0][0]'] 
                                                                                                  
 reshape_12 (Reshape)           (None, 8, 8, 50, 2)  0           ['re_lu_13[0][0]']               
                                                                                                  
 permute_6 (Permute)            (None, 8, 8, 2, 50)  0           ['reshape_12[0][0]']             
                                                                                                  
 reshape_13 (Reshape)           (None, 8, 8, 100)    0           ['permute_6[0][0]']              
                                                                                                  
 depthwise_conv2d_6 (DepthwiseC  (None, 8, 8, 100)   1000        ['reshape_13[0][0]']             
 onv2D)                                                                                           
                                                                                                  
 batch_normalization_20 (BatchN  (None, 8, 8, 100)   400         ['depthwise_conv2d_6[0][0]']     
 ormalization)                                                                                    
                                                                                                  
 conv2d_14 (Conv2D)             (None, 8, 8, 400)    20400       ['batch_normalization_20[0][0]'] 
                                                                                                  
 batch_normalization_21 (BatchN  (None, 8, 8, 400)   1600        ['conv2d_14[0][0]']              
 ormalization)                                                                                    
                                                                                                  
 add_4 (Add)                    (None, 8, 8, 400)    0           ['batch_normalization_21[0][0]', 
                                                                  're_lu_12[0][0]']               
                                                                                                  
 re_lu_14 (ReLU)                (None, 8, 8, 400)    0           ['add_4[0][0]']                  
                                                                                                  
 conv2d_15 (Conv2D)             (None, 8, 8, 100)    20100       ['re_lu_14[0][0]']               
                                                                                                  
 batch_normalization_22 (BatchN  (None, 8, 8, 100)   400         ['conv2d_15[0][0]']              
 ormalization)                                                                                    
                                                                                                  
 re_lu_15 (ReLU)                (None, 8, 8, 100)    0           ['batch_normalization_22[0][0]'] 
                                                                                                  
 reshape_14 (Reshape)           (None, 8, 8, 50, 2)  0           ['re_lu_15[0][0]']               
                                                                                                  
 permute_7 (Permute)            (None, 8, 8, 2, 50)  0           ['reshape_14[0][0]']             
                                                                                                  
 reshape_15 (Reshape)           (None, 8, 8, 100)    0           ['permute_7[0][0]']              
                                                                                                  
 depthwise_conv2d_7 (DepthwiseC  (None, 8, 8, 100)   1000        ['reshape_15[0][0]']             
 onv2D)                                                                                           
                                                                                                  
 batch_normalization_23 (BatchN  (None, 8, 8, 100)   400         ['depthwise_conv2d_7[0][0]']     
 ormalization)                                                                                    
                                                                                                  
 conv2d_16 (Conv2D)             (None, 8, 8, 400)    20400       ['batch_normalization_23[0][0]'] 
                                                                                                  
 batch_normalization_24 (BatchN  (None, 8, 8, 400)   1600        ['conv2d_16[0][0]']              
 ormalization)                                                                                    
                                                                                                  
 add_5 (Add)                    (None, 8, 8, 400)    0           ['batch_normalization_24[0][0]', 
                                                                  're_lu_14[0][0]']               
                                                                                                  
 re_lu_16 (ReLU)                (None, 8, 8, 400)    0           ['add_5[0][0]']                  
                                                                                                  
 conv2d_17 (Conv2D)             (None, 8, 8, 100)    20100       ['re_lu_16[0][0]']               
                                                                                                  
 batch_normalization_25 (BatchN  (None, 8, 8, 100)   400         ['conv2d_17[0][0]']              
 ormalization)                                                                                    
                                                                                                  
 re_lu_17 (ReLU)                (None, 8, 8, 100)    0           ['batch_normalization_25[0][0]'] 
                                                                                                  
 reshape_16 (Reshape)           (None, 8, 8, 50, 2)  0           ['re_lu_17[0][0]']               
                                                                                                  
 permute_8 (Permute)            (None, 8, 8, 2, 50)  0           ['reshape_16[0][0]']             
                                                                                                  
 reshape_17 (Reshape)           (None, 8, 8, 100)    0           ['permute_8[0][0]']              
                                                                                                  
 depthwise_conv2d_8 (DepthwiseC  (None, 8, 8, 100)   1000        ['reshape_17[0][0]']             
 onv2D)                                                                                           
                                                                                                  
 batch_normalization_26 (BatchN  (None, 8, 8, 100)   400         ['depthwise_conv2d_8[0][0]']     
 ormalization)                                                                                    
                                                                                                  
 conv2d_18 (Conv2D)             (None, 8, 8, 400)    20400       ['batch_normalization_26[0][0]'] 
                                                                                                  
 batch_normalization_27 (BatchN  (None, 8, 8, 400)   1600        ['conv2d_18[0][0]']              
 ormalization)                                                                                    
                                                                                                  
 add_6 (Add)                    (None, 8, 8, 400)    0           ['batch_normalization_27[0][0]', 
                                                                  're_lu_16[0][0]']               
                                                                                                  
 re_lu_18 (ReLU)                (None, 8, 8, 400)    0           ['add_6[0][0]']                  
                                                                                                  
 conv2d_19 (Conv2D)             (None, 8, 8, 100)    20100       ['re_lu_18[0][0]']               
                                                                                                  
 batch_normalization_28 (BatchN  (None, 8, 8, 100)   400         ['conv2d_19[0][0]']              
 ormalization)                                                                                    
                                                                                                  
 re_lu_19 (ReLU)                (None, 8, 8, 100)    0           ['batch_normalization_28[0][0]'] 
                                                                                                  
 reshape_18 (Reshape)           (None, 8, 8, 50, 2)  0           ['re_lu_19[0][0]']               
                                                                                                  
 permute_9 (Permute)            (None, 8, 8, 2, 50)  0           ['reshape_18[0][0]']             
                                                                                                  
 reshape_19 (Reshape)           (None, 8, 8, 100)    0           ['permute_9[0][0]']              
                                                                                                  
 depthwise_conv2d_9 (DepthwiseC  (None, 8, 8, 100)   1000        ['reshape_19[0][0]']             
 onv2D)                                                                                           
                                                                                                  
 batch_normalization_29 (BatchN  (None, 8, 8, 100)   400         ['depthwise_conv2d_9[0][0]']     
 ormalization)                                                                                    
                                                                                                  
 conv2d_20 (Conv2D)             (None, 8, 8, 400)    20400       ['batch_normalization_29[0][0]'] 
                                                                                                  
 batch_normalization_30 (BatchN  (None, 8, 8, 400)   1600        ['conv2d_20[0][0]']              
 ormalization)                                                                                    
                                                                                                  
 add_7 (Add)                    (None, 8, 8, 400)    0           ['batch_normalization_30[0][0]', 
                                                                  're_lu_18[0][0]']               
                                                                                                  
 re_lu_20 (ReLU)                (None, 8, 8, 400)    0           ['add_7[0][0]']                  
                                                                                                  
 conv2d_21 (Conv2D)             (None, 8, 8, 100)    20100       ['re_lu_20[0][0]']               
                                                                                                  
 batch_normalization_31 (BatchN  (None, 8, 8, 100)   400         ['conv2d_21[0][0]']              
 ormalization)                                                                                    
                                                                                                  
 re_lu_21 (ReLU)                (None, 8, 8, 100)    0           ['batch_normalization_31[0][0]'] 
                                                                                                  
 reshape_20 (Reshape)           (None, 8, 8, 50, 2)  0           ['re_lu_21[0][0]']               
                                                                                                  
 permute_10 (Permute)           (None, 8, 8, 2, 50)  0           ['reshape_20[0][0]']             
                                                                                                  
 reshape_21 (Reshape)           (None, 8, 8, 100)    0           ['permute_10[0][0]']             
                                                                                                  
 depthwise_conv2d_10 (Depthwise  (None, 8, 8, 100)   1000        ['reshape_21[0][0]']             
 Conv2D)                                                                                          
                                                                                                  
 batch_normalization_32 (BatchN  (None, 8, 8, 100)   400         ['depthwise_conv2d_10[0][0]']    
 ormalization)                                                                                    
                                                                                                  
 conv2d_22 (Conv2D)             (None, 8, 8, 400)    20400       ['batch_normalization_32[0][0]'] 
                                                                                                  
 batch_normalization_33 (BatchN  (None, 8, 8, 400)   1600        ['conv2d_22[0][0]']              
 ormalization)                                                                                    
                                                                                                  
 add_8 (Add)                    (None, 8, 8, 400)    0           ['batch_normalization_33[0][0]', 
                                                                  're_lu_20[0][0]']               
                                                                                                  
 re_lu_22 (ReLU)                (None, 8, 8, 400)    0           ['add_8[0][0]']                  
                                                                                                  
 conv2d_23 (Conv2D)             (None, 8, 8, 100)    20100       ['re_lu_22[0][0]']               
                                                                                                  
 batch_normalization_34 (BatchN  (None, 8, 8, 100)   400         ['conv2d_23[0][0]']              
 ormalization)                                                                                    
                                                                                                  
 re_lu_23 (ReLU)                (None, 8, 8, 100)    0           ['batch_normalization_34[0][0]'] 
                                                                                                  
 reshape_22 (Reshape)           (None, 8, 8, 50, 2)  0           ['re_lu_23[0][0]']               
                                                                                                  
 permute_11 (Permute)           (None, 8, 8, 2, 50)  0           ['reshape_22[0][0]']             
                                                                                                  
 reshape_23 (Reshape)           (None, 8, 8, 100)    0           ['permute_11[0][0]']             
                                                                                                  
 depthwise_conv2d_11 (Depthwise  (None, 8, 8, 100)   1000        ['reshape_23[0][0]']             
 Conv2D)                                                                                          
                                                                                                  
 batch_normalization_35 (BatchN  (None, 8, 8, 100)   400         ['depthwise_conv2d_11[0][0]']    
 ormalization)                                                                                    
                                                                                                  
 conv2d_24 (Conv2D)             (None, 8, 8, 400)    20400       ['batch_normalization_35[0][0]'] 
                                                                                                  
 batch_normalization_36 (BatchN  (None, 8, 8, 400)   1600        ['conv2d_24[0][0]']              
 ormalization)                                                                                    
                                                                                                  
 add_9 (Add)                    (None, 8, 8, 400)    0           ['batch_normalization_36[0][0]', 
                                                                  're_lu_22[0][0]']               
                                                                                                  
 re_lu_24 (ReLU)                (None, 8, 8, 400)    0           ['add_9[0][0]']                  
                                                                                                  
 conv2d_25 (Conv2D)             (None, 8, 8, 200)    40200       ['re_lu_24[0][0]']               
                                                                                                  
 batch_normalization_37 (BatchN  (None, 8, 8, 200)   800         ['conv2d_25[0][0]']              
 ormalization)                                                                                    
                                                                                                  
 re_lu_25 (ReLU)                (None, 8, 8, 200)    0           ['batch_normalization_37[0][0]'] 
                                                                                                  
 reshape_24 (Reshape)           (None, 8, 8, 100, 2  0           ['re_lu_25[0][0]']               
                                )                                                                 
                                                                                                  
 permute_12 (Permute)           (None, 8, 8, 2, 100  0           ['reshape_24[0][0]']             
                                )                                                                 
                                                                                                  
 reshape_25 (Reshape)           (None, 8, 8, 200)    0           ['permute_12[0][0]']             
                                                                                                  
 depthwise_conv2d_12 (Depthwise  (None, 4, 4, 200)   2000        ['reshape_25[0][0]']             
 Conv2D)                                                                                          
                                                                                                  
 batch_normalization_38 (BatchN  (None, 4, 4, 200)   800         ['depthwise_conv2d_12[0][0]']    
 ormalization)                                                                                    
                                                                                                  
 conv2d_26 (Conv2D)             (None, 4, 4, 400)    40400       ['batch_normalization_38[0][0]'] 
                                                                                                  
 batch_normalization_39 (BatchN  (None, 4, 4, 400)   1600        ['conv2d_26[0][0]']              
 ormalization)                                                                                    
                                                                                                  
 average_pooling2d_2 (AveragePo  (None, 4, 4, 400)   0           ['re_lu_24[0][0]']               
 oling2D)                                                                                         
                                                                                                  
 concatenate_2 (Concatenate)    (None, 4, 4, 800)    0           ['batch_normalization_39[0][0]', 
                                                                  'average_pooling2d_2[0][0]']    
                                                                                                  
 re_lu_26 (ReLU)                (None, 4, 4, 800)    0           ['concatenate_2[0][0]']          
                                                                                                  
 conv2d_27 (Conv2D)             (None, 4, 4, 200)    80200       ['re_lu_26[0][0]']               
                                                                                                  
 batch_normalization_40 (BatchN  (None, 4, 4, 200)   800         ['conv2d_27[0][0]']              
 ormalization)                                                                                    
                                                                                                  
 re_lu_27 (ReLU)                (None, 4, 4, 200)    0           ['batch_normalization_40[0][0]'] 
                                                                                                  
 reshape_26 (Reshape)           (None, 4, 4, 100, 2  0           ['re_lu_27[0][0]']               
                                )                                                                 
                                                                                                  
 permute_13 (Permute)           (None, 4, 4, 2, 100  0           ['reshape_26[0][0]']             
                                )                                                                 
                                                                                                  
 reshape_27 (Reshape)           (None, 4, 4, 200)    0           ['permute_13[0][0]']             
                                                                                                  
 depthwise_conv2d_13 (Depthwise  (None, 4, 4, 200)   2000        ['reshape_27[0][0]']             
 Conv2D)                                                                                          
                                                                                                  
 batch_normalization_41 (BatchN  (None, 4, 4, 200)   800         ['depthwise_conv2d_13[0][0]']    
 ormalization)                                                                                    
                                                                                                  
 conv2d_28 (Conv2D)             (None, 4, 4, 800)    80800       ['batch_normalization_41[0][0]'] 
                                                                                                  
 batch_normalization_42 (BatchN  (None, 4, 4, 800)   3200        ['conv2d_28[0][0]']              
 ormalization)                                                                                    
                                                                                                  
 add_10 (Add)                   (None, 4, 4, 800)    0           ['batch_normalization_42[0][0]', 
                                                                  're_lu_26[0][0]']               
                                                                                                  
 re_lu_28 (ReLU)                (None, 4, 4, 800)    0           ['add_10[0][0]']                 
                                                                                                  
 conv2d_29 (Conv2D)             (None, 4, 4, 200)    80200       ['re_lu_28[0][0]']               
                                                                                                  
 batch_normalization_43 (BatchN  (None, 4, 4, 200)   800         ['conv2d_29[0][0]']              
 ormalization)                                                                                    
                                                                                                  
 re_lu_29 (ReLU)                (None, 4, 4, 200)    0           ['batch_normalization_43[0][0]'] 
                                                                                                  
 reshape_28 (Reshape)           (None, 4, 4, 100, 2  0           ['re_lu_29[0][0]']               
                                )                                                                 
                                                                                                  
 permute_14 (Permute)           (None, 4, 4, 2, 100  0           ['reshape_28[0][0]']             
                                )                                                                 
                                                                                                  
 reshape_29 (Reshape)           (None, 4, 4, 200)    0           ['permute_14[0][0]']             
                                                                                                  
 depthwise_conv2d_14 (Depthwise  (None, 4, 4, 200)   2000        ['reshape_29[0][0]']             
 Conv2D)                                                                                          
                                                                                                  
 batch_normalization_44 (BatchN  (None, 4, 4, 200)   800         ['depthwise_conv2d_14[0][0]']    
 ormalization)                                                                                    
                                                                                                  
 conv2d_30 (Conv2D)             (None, 4, 4, 800)    80800       ['batch_normalization_44[0][0]'] 
                                                                                                  
 batch_normalization_45 (BatchN  (None, 4, 4, 800)   3200        ['conv2d_30[0][0]']              
 ormalization)                                                                                    
                                                                                                  
 add_11 (Add)                   (None, 4, 4, 800)    0           ['batch_normalization_45[0][0]', 
                                                                  're_lu_28[0][0]']               
                                                                                                  
 re_lu_30 (ReLU)                (None, 4, 4, 800)    0           ['add_11[0][0]']                 
                                                                                                  
 conv2d_31 (Conv2D)             (None, 4, 4, 200)    80200       ['re_lu_30[0][0]']               
                                                                                                  
 batch_normalization_46 (BatchN  (None, 4, 4, 200)   800         ['conv2d_31[0][0]']              
 ormalization)                                                                                    
                                                                                                  
 re_lu_31 (ReLU)                (None, 4, 4, 200)    0           ['batch_normalization_46[0][0]'] 
                                                                                                  
 reshape_30 (Reshape)           (None, 4, 4, 100, 2  0           ['re_lu_31[0][0]']               
                                )                                                                 
                                                                                                  
 permute_15 (Permute)           (None, 4, 4, 2, 100  0           ['reshape_30[0][0]']             
                                )                                                                 
                                                                                                  
 reshape_31 (Reshape)           (None, 4, 4, 200)    0           ['permute_15[0][0]']             
                                                                                                  
 depthwise_conv2d_15 (Depthwise  (None, 4, 4, 200)   2000        ['reshape_31[0][0]']             
 Conv2D)                                                                                          
                                                                                                  
 batch_normalization_47 (BatchN  (None, 4, 4, 200)   800         ['depthwise_conv2d_15[0][0]']    
 ormalization)                                                                                    
                                                                                                  
 conv2d_32 (Conv2D)             (None, 4, 4, 800)    80800       ['batch_normalization_47[0][0]'] 
                                                                                                  
 batch_normalization_48 (BatchN  (None, 4, 4, 800)   3200        ['conv2d_32[0][0]']              
 ormalization)                                                                                    
                                                                                                  
 add_12 (Add)                   (None, 4, 4, 800)    0           ['batch_normalization_48[0][0]', 
                                                                  're_lu_30[0][0]']               
                                                                                                  
 re_lu_32 (ReLU)                (None, 4, 4, 800)    0           ['add_12[0][0]']                 
                                                                                                  
 global_average_pooling2d (Glob  (None, 800)         0           ['re_lu_32[0][0]']               
 alAveragePooling2D)                                                                              
                                                                                                  
 flatten (Flatten)              (None, 800)          0           ['global_average_pooling2d[0][0]'
                                                                 ]                                
                                                                                                  
 dense_1 (Dense)                (None, 512)          410112      ['flatten[0][0]']                
                                                                                                  
 dense_2 (Dense)                (None, 5)            2565        ['dense_1[0][0]']                
                                                                                                  
==================================================================================================
Total params: 1,375,525
Trainable params: 1,355,125
Non-trainable params: 20,400
__________________________________________________________________________________________________
…
__________________________________________________________________________________________________
 Layer (type)                   Output Shape         Param #     Connected to                     
==================================================================================================
 input_2 (InputLayer)           [(None, 128, 128, 3  0           []                               
                                )]                                                                
                                                                                                  
 conv2d_33 (Conv2D)             (None, 64, 64, 24)   672         ['input_2[0][0]']                
                                                                                                  
 batch_normalization_49 (BatchN  (None, 64, 64, 24)  96          ['conv2d_33[0][0]']              
 ormalization)                                                                                    
                                                                                                  
 re_lu_33 (ReLU)                (None, 64, 64, 24)   0           ['batch_normalization_49[0][0]'] 
                                                                                                  
 max_pooling2d_1 (MaxPooling2D)  (None, 32, 32, 24)  0           ['re_lu_33[0][0]']               
                                                                                                  
 conv2d_34 (Conv2D)             (None, 32, 32, 50)   650         ['max_pooling2d_1[0][0]']        
                                                                                                  
 batch_normalization_50 (BatchN  (None, 32, 32, 50)  200         ['conv2d_34[0][0]']              
 ormalization)                                                                                    
                                                                                                  
 re_lu_34 (ReLU)                (None, 32, 32, 50)   0           ['batch_normalization_50[0][0]'] 
                                                                                                  
 reshape_32 (Reshape)           (None, 32, 32, 25,   0           ['re_lu_34[0][0]']               
                                2)                                                                
                                                                                                  
 permute_16 (Permute)           (None, 32, 32, 2, 2  0           ['reshape_32[0][0]']             
                                5)                                                                
                                                                                                  
 reshape_33 (Reshape)           (None, 32, 32, 50)   0           ['permute_16[0][0]']             
                                                                                                  
 depthwise_conv2d_16 (Depthwise  (None, 16, 16, 50)  500         ['reshape_33[0][0]']             
 Conv2D)                                                                                          
                                                                                                  
 batch_normalization_51 (BatchN  (None, 16, 16, 50)  200         ['depthwise_conv2d_16[0][0]']    
 ormalization)                                                                                    
                                                                                                  
 conv2d_35 (Conv2D)             (None, 16, 16, 176)  4576        ['batch_normalization_51[0][0]'] 
                                                                                                  
 batch_normalization_52 (BatchN  (None, 16, 16, 176)  704        ['conv2d_35[0][0]']              
 ormalization)                                                                                    
                                                                                                  
 average_pooling2d_3 (AveragePo  (None, 16, 16, 24)  0           ['max_pooling2d_1[0][0]']        
 oling2D)                                                                                         
                                                                                                  
 concatenate_3 (Concatenate)    (None, 16, 16, 200)  0           ['batch_normalization_52[0][0]', 
                                                                  'average_pooling2d_3[0][0]']    
                                                                                                  
 re_lu_35 (ReLU)                (None, 16, 16, 200)  0           ['concatenate_3[0][0]']          
                                                                                                  
 conv2d_36 (Conv2D)             (None, 16, 16, 50)   5050        ['re_lu_35[0][0]']               
                                                                                                  
 batch_normalization_53 (BatchN  (None, 16, 16, 50)  200         ['conv2d_36[0][0]']              
 ormalization)                                                                                    
                                                                                                  
 re_lu_36 (ReLU)                (None, 16, 16, 50)   0           ['batch_normalization_53[0][0]'] 
                                                                                                  
 reshape_34 (Reshape)           (None, 16, 16, 25,   0           ['re_lu_36[0][0]']               
                                2)                                                                
                                                                                                  
 permute_17 (Permute)           (None, 16, 16, 2, 2  0           ['reshape_34[0][0]']             
                                5)                                                                
                                                                                                  
 reshape_35 (Reshape)           (None, 16, 16, 50)   0           ['permute_17[0][0]']             
                                                                                                  
 depthwise_conv2d_17 (Depthwise  (None, 16, 16, 50)  500         ['reshape_35[0][0]']             
 Conv2D)                                                                                          
                                                                                                  
 batch_normalization_54 (BatchN  (None, 16, 16, 50)  200         ['depthwise_conv2d_17[0][0]']    
 ormalization)                                                                                    
                                                                                                  
 conv2d_37 (Conv2D)             (None, 16, 16, 200)  5200        ['batch_normalization_54[0][0]'] 
                                                                                                  
 batch_normalization_55 (BatchN  (None, 16, 16, 200)  800        ['conv2d_37[0][0]']              
 ormalization)                                                                                    
                                                                                                  
 add_13 (Add)                   (None, 16, 16, 200)  0           ['batch_normalization_55[0][0]', 
                                                                  're_lu_35[0][0]']               
                                                                                                  
 re_lu_37 (ReLU)                (None, 16, 16, 200)  0           ['add_13[0][0]']                 
                                                                                                  
 conv2d_38 (Conv2D)             (None, 16, 16, 50)   5050        ['re_lu_37[0][0]']               
                                                                                                  
 batch_normalization_56 (BatchN  (None, 16, 16, 50)  200         ['conv2d_38[0][0]']              
 ormalization)                                                                                    
                                                                                                  
 re_lu_38 (ReLU)                (None, 16, 16, 50)   0           ['batch_normalization_56[0][0]'] 
                                                                                                  
 reshape_36 (Reshape)           (None, 16, 16, 25,   0           ['re_lu_38[0][0]']               
                                2)                                                                
                                                                                                  
 permute_18 (Permute)           (None, 16, 16, 2, 2  0           ['reshape_36[0][0]']             
                                5)                                                                
                                                                                                  
 reshape_37 (Reshape)           (None, 16, 16, 50)   0           ['permute_18[0][0]']             
                                                                                                  
 depthwise_conv2d_18 (Depthwise  (None, 16, 16, 50)  500         ['reshape_37[0][0]']             
 Conv2D)                                                                                          
                                                                                                  
 batch_normalization_57 (BatchN  (None, 16, 16, 50)  200         ['depthwise_conv2d_18[0][0]']    
 ormalization)                                                                                    
                                                                                                  
 conv2d_39 (Conv2D)             (None, 16, 16, 200)  5200        ['batch_normalization_57[0][0]'] 
                                                                                                  
 batch_normalization_58 (BatchN  (None, 16, 16, 200)  800        ['conv2d_39[0][0]']              
 ormalization)                                                                                    
                                                                                                  
 add_14 (Add)                   (None, 16, 16, 200)  0           ['batch_normalization_58[0][0]', 
                                                                  're_lu_37[0][0]']               
                                                                                                  
 re_lu_39 (ReLU)                (None, 16, 16, 200)  0           ['add_14[0][0]']                 
                                                                                                  
 conv2d_40 (Conv2D)             (None, 16, 16, 50)   5050        ['re_lu_39[0][0]']               
                                                                                                  
 batch_normalization_59 (BatchN  (None, 16, 16, 50)  200         ['conv2d_40[0][0]']              
 ormalization)                                                                                    
                                                                                                  
 re_lu_40 (ReLU)                (None, 16, 16, 50)   0           ['batch_normalization_59[0][0]'] 
                                                                                                  
 reshape_38 (Reshape)           (None, 16, 16, 25,   0           ['re_lu_40[0][0]']               
                                2)                                                                
                                                                                                  
 permute_19 (Permute)           (None, 16, 16, 2, 2  0           ['reshape_38[0][0]']             
                                5)                                                                
                                                                                                  
 reshape_39 (Reshape)           (None, 16, 16, 50)   0           ['permute_19[0][0]']             
                                                                                                  
 depthwise_conv2d_19 (Depthwise  (None, 16, 16, 50)  500         ['reshape_39[0][0]']             
 Conv2D)                                                                                          
                                                                                                  
 batch_normalization_60 (BatchN  (None, 16, 16, 50)  200         ['depthwise_conv2d_19[0][0]']    
 ormalization)                                                                                    
                                                                                                  
 conv2d_41 (Conv2D)             (None, 16, 16, 200)  5200        ['batch_normalization_60[0][0]'] 
                                                                                                  
 batch_normalization_61 (BatchN  (None, 16, 16, 200)  800        ['conv2d_41[0][0]']              
 ormalization)                                                                                    
                                                                                                  
 add_15 (Add)                   (None, 16, 16, 200)  0           ['batch_normalization_61[0][0]', 
                                                                  're_lu_39[0][0]']               
                                                                                                  
 re_lu_41 (ReLU)                (None, 16, 16, 200)  0           ['add_15[0][0]']                 
                                                                                                  
 conv2d_42 (Conv2D)             (None, 16, 16, 100)  10100       ['re_lu_41[0][0]']               
                                                                                                  
 batch_normalization_62 (BatchN  (None, 16, 16, 100)  400        ['conv2d_42[0][0]']              
 ormalization)                                                                                    
                                                                                                  
 re_lu_42 (ReLU)                (None, 16, 16, 100)  0           ['batch_normalization_62[0][0]'] 
                                                                                                  
 reshape_40 (Reshape)           (None, 16, 16, 50,   0           ['re_lu_42[0][0]']               
                                2)                                                                
                                                                                                  
 permute_20 (Permute)           (None, 16, 16, 2, 5  0           ['reshape_40[0][0]']             
                                0)                                                                
                                                                                                  
 reshape_41 (Reshape)           (None, 16, 16, 100)  0           ['permute_20[0][0]']             
                                                                                                  
 depthwise_conv2d_20 (Depthwise  (None, 8, 8, 100)   1000        ['reshape_41[0][0]']             
 Conv2D)                                                                                          
                                                                                                  
 batch_normalization_63 (BatchN  (None, 8, 8, 100)   400         ['depthwise_conv2d_20[0][0]']    
 ormalization)                                                                                    
                                                                                                  
 conv2d_43 (Conv2D)             (None, 8, 8, 200)    10200       ['batch_normalization_63[0][0]'] 
                                                                                                  
 batch_normalization_64 (BatchN  (None, 8, 8, 200)   800         ['conv2d_43[0][0]']              
 ormalization)                                                                                    
                                                                                                  
 average_pooling2d_4 (AveragePo  (None, 8, 8, 200)   0           ['re_lu_41[0][0]']               
 oling2D)                                                                                         
                                                                                                  
 concatenate_4 (Concatenate)    (None, 8, 8, 400)    0           ['batch_normalization_64[0][0]', 
                                                                  'average_pooling2d_4[0][0]']    
                                                                                                  
 re_lu_43 (ReLU)                (None, 8, 8, 400)    0           ['concatenate_4[0][0]']          
                                                                                                  
 conv2d_44 (Conv2D)             (None, 8, 8, 100)    20100       ['re_lu_43[0][0]']               
                                                                                                  
 batch_normalization_65 (BatchN  (None, 8, 8, 100)   400         ['conv2d_44[0][0]']              
 ormalization)                                                                                    
                                                                                                  
 re_lu_44 (ReLU)                (None, 8, 8, 100)    0           ['batch_normalization_65[0][0]'] 
                                                                                                  
 reshape_42 (Reshape)           (None, 8, 8, 50, 2)  0           ['re_lu_44[0][0]']               
                                                                                                  
 permute_21 (Permute)           (None, 8, 8, 2, 50)  0           ['reshape_42[0][0]']             
                                                                                                  
 reshape_43 (Reshape)           (None, 8, 8, 100)    0           ['permute_21[0][0]']             
                                                                                                  
 depthwise_conv2d_21 (Depthwise  (None, 8, 8, 100)   1000        ['reshape_43[0][0]']             
 Conv2D)                                                                                          
                                                                                                  
 batch_normalization_66 (BatchN  (None, 8, 8, 100)   400         ['depthwise_conv2d_21[0][0]']    
 ormalization)                                                                                    
                                                                                                  
 conv2d_45 (Conv2D)             (None, 8, 8, 400)    20400       ['batch_normalization_66[0][0]'] 
                                                                                                  
 batch_normalization_67 (BatchN  (None, 8, 8, 400)   1600        ['conv2d_45[0][0]']              
 ormalization)                                                                                    
                                                                                                  
 add_16 (Add)                   (None, 8, 8, 400)    0           ['batch_normalization_67[0][0]', 
                                                                  're_lu_43[0][0]']               
                                                                                                  
 re_lu_45 (ReLU)                (None, 8, 8, 400)    0           ['add_16[0][0]']                 
                                                                                                  
 conv2d_46 (Conv2D)             (None, 8, 8, 100)    20100       ['re_lu_45[0][0]']               
                                                                                                  
 batch_normalization_68 (BatchN  (None, 8, 8, 100)   400         ['conv2d_46[0][0]']              
 ormalization)                                                                                    
                                                                                                  
 re_lu_46 (ReLU)                (None, 8, 8, 100)    0           ['batch_normalization_68[0][0]'] 
                                                                                                  
 reshape_44 (Reshape)           (None, 8, 8, 50, 2)  0           ['re_lu_46[0][0]']               
                                                                                                  
 permute_22 (Permute)           (None, 8, 8, 2, 50)  0           ['reshape_44[0][0]']             
                                                                                                  
 reshape_45 (Reshape)           (None, 8, 8, 100)    0           ['permute_22[0][0]']             
                                                                                                  
 depthwise_conv2d_22 (Depthwise  (None, 8, 8, 100)   1000        ['reshape_45[0][0]']             
 Conv2D)                                                                                          
                                                                                                  
 batch_normalization_69 (BatchN  (None, 8, 8, 100)   400         ['depthwise_conv2d_22[0][0]']    
 ormalization)                                                                                    
                                                                                                  
 conv2d_47 (Conv2D)             (None, 8, 8, 400)    20400       ['batch_normalization_69[0][0]'] 
                                                                                                  
 batch_normalization_70 (BatchN  (None, 8, 8, 400)   1600        ['conv2d_47[0][0]']              
 ormalization)                                                                                    
                                                                                                  
 add_17 (Add)                   (None, 8, 8, 400)    0           ['batch_normalization_70[0][0]', 
                                                                  're_lu_45[0][0]']               
                                                                                                  
 re_lu_47 (ReLU)                (None, 8, 8, 400)    0           ['add_17[0][0]']                 
                                                                                                  
 conv2d_48 (Conv2D)             (None, 8, 8, 100)    20100       ['re_lu_47[0][0]']               
                                                                                                  
 batch_normalization_71 (BatchN  (None, 8, 8, 100)   400         ['conv2d_48[0][0]']              
 ormalization)                                                                                    
                                                                                                  
 re_lu_48 (ReLU)                (None, 8, 8, 100)    0           ['batch_normalization_71[0][0]'] 
                                                                                                  
 reshape_46 (Reshape)           (None, 8, 8, 50, 2)  0           ['re_lu_48[0][0]']               
                                                                                                  
 permute_23 (Permute)           (None, 8, 8, 2, 50)  0           ['reshape_46[0][0]']             
                                                                                                  
 reshape_47 (Reshape)           (None, 8, 8, 100)    0           ['permute_23[0][0]']             
                                                                                                  
 depthwise_conv2d_23 (Depthwise  (None, 8, 8, 100)   1000        ['reshape_47[0][0]']             
 Conv2D)                                                                                          
                                                                                                  
 batch_normalization_72 (BatchN  (None, 8, 8, 100)   400         ['depthwise_conv2d_23[0][0]']    
 ormalization)                                                                                    
                                                                                                  
 conv2d_49 (Conv2D)             (None, 8, 8, 400)    20400       ['batch_normalization_72[0][0]'] 
                                                                                                  
 batch_normalization_73 (BatchN  (None, 8, 8, 400)   1600        ['conv2d_49[0][0]']              
 ormalization)                                                                                    
                                                                                                  
 add_18 (Add)                   (None, 8, 8, 400)    0           ['batch_normalization_73[0][0]', 
                                                                  're_lu_47[0][0]']               
                                                                                                  
 re_lu_49 (ReLU)                (None, 8, 8, 400)    0           ['add_18[0][0]']                 
                                                                                                  
 conv2d_50 (Conv2D)             (None, 8, 8, 100)    20100       ['re_lu_49[0][0]']               
                                                                                                  
 batch_normalization_74 (BatchN  (None, 8, 8, 100)   400         ['conv2d_50[0][0]']              
 ormalization)                                                                                    
                                                                                                  
 re_lu_50 (ReLU)                (None, 8, 8, 100)    0           ['batch_normalization_74[0][0]'] 
                                                                                                  
 reshape_48 (Reshape)           (None, 8, 8, 50, 2)  0           ['re_lu_50[0][0]']               
                                                                                                  
 permute_24 (Permute)           (None, 8, 8, 2, 50)  0           ['reshape_48[0][0]']             
                                                                                                  
 reshape_49 (Reshape)           (None, 8, 8, 100)    0           ['permute_24[0][0]']             
                                                                                                  
 depthwise_conv2d_24 (Depthwise  (None, 8, 8, 100)   1000        ['reshape_49[0][0]']             
 Conv2D)                                                                                          
                                                                                                  
 batch_normalization_75 (BatchN  (None, 8, 8, 100)   400         ['depthwise_conv2d_24[0][0]']    
 ormalization)                                                                                    
                                                                                                  
 conv2d_51 (Conv2D)             (None, 8, 8, 400)    20400       ['batch_normalization_75[0][0]'] 
                                                                                                  
 batch_normalization_76 (BatchN  (None, 8, 8, 400)   1600        ['conv2d_51[0][0]']              
 ormalization)                                                                                    
                                                                                                  
 add_19 (Add)                   (None, 8, 8, 400)    0           ['batch_normalization_76[0][0]', 
                                                                  're_lu_49[0][0]']               
                                                                                                  
 re_lu_51 (ReLU)                (None, 8, 8, 400)    0           ['add_19[0][0]']                 
                                                                                                  
 conv2d_52 (Conv2D)             (None, 8, 8, 100)    20100       ['re_lu_51[0][0]']               
                                                                                                  
 batch_normalization_77 (BatchN  (None, 8, 8, 100)   400         ['conv2d_52[0][0]']              
 ormalization)                                                                                    
                                                                                                  
 re_lu_52 (ReLU)                (None, 8, 8, 100)    0           ['batch_normalization_77[0][0]'] 
                                                                                                  
 reshape_50 (Reshape)           (None, 8, 8, 50, 2)  0           ['re_lu_52[0][0]']               
                                                                                                  
 permute_25 (Permute)           (None, 8, 8, 2, 50)  0           ['reshape_50[0][0]']             
                                                                                                  
 reshape_51 (Reshape)           (None, 8, 8, 100)    0           ['permute_25[0][0]']             
                                                                                                  
 depthwise_conv2d_25 (Depthwise  (None, 8, 8, 100)   1000        ['reshape_51[0][0]']             
 Conv2D)                                                                                          
                                                                                                  
 batch_normalization_78 (BatchN  (None, 8, 8, 100)   400         ['depthwise_conv2d_25[0][0]']    
 ormalization)                                                                                    
                                                                                                  
 conv2d_53 (Conv2D)             (None, 8, 8, 400)    20400       ['batch_normalization_78[0][0]'] 
                                                                                                  
 batch_normalization_79 (BatchN  (None, 8, 8, 400)   1600        ['conv2d_53[0][0]']              
 ormalization)                                                                                    
                                                                                                  
 add_20 (Add)                   (None, 8, 8, 400)    0           ['batch_normalization_79[0][0]', 
                                                                  're_lu_51[0][0]']               
                                                                                                  
 re_lu_53 (ReLU)                (None, 8, 8, 400)    0           ['add_20[0][0]']                 
                                                                                                  
 conv2d_54 (Conv2D)             (None, 8, 8, 100)    20100       ['re_lu_53[0][0]']               
                                                                                                  
 batch_normalization_80 (BatchN  (None, 8, 8, 100)   400         ['conv2d_54[0][0]']              
 ormalization)                                                                                    
                                                                                                  
 re_lu_54 (ReLU)                (None, 8, 8, 100)    0           ['batch_normalization_80[0][0]'] 
                                                                                                  
 reshape_52 (Reshape)           (None, 8, 8, 50, 2)  0           ['re_lu_54[0][0]']               
                                                                                                  
 permute_26 (Permute)           (None, 8, 8, 2, 50)  0           ['reshape_52[0][0]']             
                                                                                                  
 reshape_53 (Reshape)           (None, 8, 8, 100)    0           ['permute_26[0][0]']             
                                                                                                  
 depthwise_conv2d_26 (Depthwise  (None, 8, 8, 100)   1000        ['reshape_53[0][0]']             
 Conv2D)                                                                                          
                                                                                                  
 batch_normalization_81 (BatchN  (None, 8, 8, 100)   400         ['depthwise_conv2d_26[0][0]']    
 ormalization)                                                                                    
                                                                                                  
 conv2d_55 (Conv2D)             (None, 8, 8, 400)    20400       ['batch_normalization_81[0][0]'] 
                                                                                                  
 batch_normalization_82 (BatchN  (None, 8, 8, 400)   1600        ['conv2d_55[0][0]']              
 ormalization)                                                                                    
                                                                                                  
 add_21 (Add)                   (None, 8, 8, 400)    0           ['batch_normalization_82[0][0]', 
                                                                  're_lu_53[0][0]']               
                                                                                                  
 re_lu_55 (ReLU)                (None, 8, 8, 400)    0           ['add_21[0][0]']                 
                                                                                                  
 conv2d_56 (Conv2D)             (None, 8, 8, 100)    20100       ['re_lu_55[0][0]']               
                                                                                                  
 batch_normalization_83 (BatchN  (None, 8, 8, 100)   400         ['conv2d_56[0][0]']              
 ormalization)                                                                                    
                                                                                                  
 re_lu_56 (ReLU)                (None, 8, 8, 100)    0           ['batch_normalization_83[0][0]'] 
                                                                                                  
 reshape_54 (Reshape)           (None, 8, 8, 50, 2)  0           ['re_lu_56[0][0]']               
                                                                                                  
 permute_27 (Permute)           (None, 8, 8, 2, 50)  0           ['reshape_54[0][0]']             
                                                                                                  
 reshape_55 (Reshape)           (None, 8, 8, 100)    0           ['permute_27[0][0]']             
                                                                                                  
 depthwise_conv2d_27 (Depthwise  (None, 8, 8, 100)   1000        ['reshape_55[0][0]']             
 Conv2D)                                                                                          
                                                                                                  
 batch_normalization_84 (BatchN  (None, 8, 8, 100)   400         ['depthwise_conv2d_27[0][0]']    
 ormalization)                                                                                    
                                                                                                  
 conv2d_57 (Conv2D)             (None, 8, 8, 400)    20400       ['batch_normalization_84[0][0]'] 
                                                                                                  
 batch_normalization_85 (BatchN  (None, 8, 8, 400)   1600        ['conv2d_57[0][0]']              
 ormalization)                                                                                    
                                                                                                  
 add_22 (Add)                   (None, 8, 8, 400)    0           ['batch_normalization_85[0][0]', 
                                                                  're_lu_55[0][0]']               
                                                                                                  
 re_lu_57 (ReLU)                (None, 8, 8, 400)    0           ['add_22[0][0]']                 
                                                                                                  
 conv2d_58 (Conv2D)             (None, 8, 8, 200)    40200       ['re_lu_57[0][0]']               
                                                                                                  
 batch_normalization_86 (BatchN  (None, 8, 8, 200)   800         ['conv2d_58[0][0]']              
 ormalization)                                                                                    
                                                                                                  
 re_lu_58 (ReLU)                (None, 8, 8, 200)    0           ['batch_normalization_86[0][0]'] 
                                                                                                  
 reshape_56 (Reshape)           (None, 8, 8, 100, 2  0           ['re_lu_58[0][0]']               
                                )                                                                 
                                                                                                  
 permute_28 (Permute)           (None, 8, 8, 2, 100  0           ['reshape_56[0][0]']             
                                )                                                                 
                                                                                                  
 reshape_57 (Reshape)           (None, 8, 8, 200)    0           ['permute_28[0][0]']             
                                                                                                  
 depthwise_conv2d_28 (Depthwise  (None, 4, 4, 200)   2000        ['reshape_57[0][0]']             
 Conv2D)                                                                                          
                                                                                                  
 batch_normalization_87 (BatchN  (None, 4, 4, 200)   800         ['depthwise_conv2d_28[0][0]']    
 ormalization)                                                                                    
                                                                                                  
 conv2d_59 (Conv2D)             (None, 4, 4, 400)    40400       ['batch_normalization_87[0][0]'] 
                                                                                                  
 batch_normalization_88 (BatchN  (None, 4, 4, 400)   1600        ['conv2d_59[0][0]']              
 ormalization)                                                                                    
                                                                                                  
 average_pooling2d_5 (AveragePo  (None, 4, 4, 400)   0           ['re_lu_57[0][0]']               
 oling2D)                                                                                         
                                                                                                  
 concatenate_5 (Concatenate)    (None, 4, 4, 800)    0           ['batch_normalization_88[0][0]', 
                                                                  'average_pooling2d_5[0][0]']    
                                                                                                  
 re_lu_59 (ReLU)                (None, 4, 4, 800)    0           ['concatenate_5[0][0]']          
                                                                                                  
 conv2d_60 (Conv2D)             (None, 4, 4, 200)    80200       ['re_lu_59[0][0]']               
                                                                                                  
 batch_normalization_89 (BatchN  (None, 4, 4, 200)   800         ['conv2d_60[0][0]']              
 ormalization)                                                                                    
                                                                                                  
 re_lu_60 (ReLU)                (None, 4, 4, 200)    0           ['batch_normalization_89[0][0]'] 
                                                                                                  
 reshape_58 (Reshape)           (None, 4, 4, 100, 2  0           ['re_lu_60[0][0]']               
                                )                                                                 
                                                                                                  
 permute_29 (Permute)           (None, 4, 4, 2, 100  0           ['reshape_58[0][0]']             
                                )                                                                 
                                                                                                  
 reshape_59 (Reshape)           (None, 4, 4, 200)    0           ['permute_29[0][0]']             
                                                                                                  
 depthwise_conv2d_29 (Depthwise  (None, 4, 4, 200)   2000        ['reshape_59[0][0]']             
 Conv2D)                                                                                          
                                                                                                  
 batch_normalization_90 (BatchN  (None, 4, 4, 200)   800         ['depthwise_conv2d_29[0][0]']    
 ormalization)                                                                                    
                                                                                                  
 conv2d_61 (Conv2D)             (None, 4, 4, 800)    80800       ['batch_normalization_90[0][0]'] 
                                                                                                  
 batch_normalization_91 (BatchN  (None, 4, 4, 800)   3200        ['conv2d_61[0][0]']              
 ormalization)                                                                                    
                                                                                                  
 add_23 (Add)                   (None, 4, 4, 800)    0           ['batch_normalization_91[0][0]', 
                                                                  're_lu_59[0][0]']               
                                                                                                  
 re_lu_61 (ReLU)                (None, 4, 4, 800)    0           ['add_23[0][0]']                 
                                                                                                  
 conv2d_62 (Conv2D)             (None, 4, 4, 200)    80200       ['re_lu_61[0][0]']               
                                                                                                  
 batch_normalization_92 (BatchN  (None, 4, 4, 200)   800         ['conv2d_62[0][0]']              
 ormalization)                                                                                    
                                                                                                  
 re_lu_62 (ReLU)                (None, 4, 4, 200)    0           ['batch_normalization_92[0][0]'] 
                                                                                                  
 reshape_60 (Reshape)           (None, 4, 4, 100, 2  0           ['re_lu_62[0][0]']               
                                )                                                                 
                                                                                                  
 permute_30 (Permute)           (None, 4, 4, 2, 100  0           ['reshape_60[0][0]']             
                                )                                                                 
                                                                                                  
 reshape_61 (Reshape)           (None, 4, 4, 200)    0           ['permute_30[0][0]']             
                                                                                                  
 depthwise_conv2d_30 (Depthwise  (None, 4, 4, 200)   2000        ['reshape_61[0][0]']             
 Conv2D)                                                                                          
                                                                                                  
 batch_normalization_93 (BatchN  (None, 4, 4, 200)   800         ['depthwise_conv2d_30[0][0]']    
 ormalization)                                                                                    
                                                                                                  
 conv2d_63 (Conv2D)             (None, 4, 4, 800)    80800       ['batch_normalization_93[0][0]'] 
                                                                                                  
 batch_normalization_94 (BatchN  (None, 4, 4, 800)   3200        ['conv2d_63[0][0]']              
 ormalization)                                                                                    
                                                                                                  
 add_24 (Add)                   (None, 4, 4, 800)    0           ['batch_normalization_94[0][0]', 
                                                                  're_lu_61[0][0]']               
                                                                                                  
 re_lu_63 (ReLU)                (None, 4, 4, 800)    0           ['add_24[0][0]']                 
                                                                                                  
 conv2d_64 (Conv2D)             (None, 4, 4, 200)    80200       ['re_lu_63[0][0]']               
                                                                                                  
 batch_normalization_95 (BatchN  (None, 4, 4, 200)   800         ['conv2d_64[0][0]']              
 ormalization)                                                                                    
                                                                                                  
 re_lu_64 (ReLU)                (None, 4, 4, 200)    0           ['batch_normalization_95[0][0]'] 
                                                                                                  
 reshape_62 (Reshape)           (None, 4, 4, 100, 2  0           ['re_lu_64[0][0]']               
                                )                                                                 
                                                                                                  
 permute_31 (Permute)           (None, 4, 4, 2, 100  0           ['reshape_62[0][0]']             
                                )                                                                 
                                                                                                  
 reshape_63 (Reshape)           (None, 4, 4, 200)    0           ['permute_31[0][0]']             
                                                                                                  
 depthwise_conv2d_31 (Depthwise  (None, 4, 4, 200)   2000        ['reshape_63[0][0]']             
 Conv2D)                                                                                          
                                                                                                  
 batch_normalization_96 (BatchN  (None, 4, 4, 200)   800         ['depthwise_conv2d_31[0][0]']    
 ormalization)                                                                                    
                                                                                                  
 conv2d_65 (Conv2D)             (None, 4, 4, 800)    80800       ['batch_normalization_96[0][0]'] 
                                                                                                  
 batch_normalization_97 (BatchN  (None, 4, 4, 800)   3200        ['conv2d_65[0][0]']              
 ormalization)                                                                                    
                                                                                                  
 add_25 (Add)                   (None, 4, 4, 800)    0           ['batch_normalization_97[0][0]', 
                                                                  're_lu_63[0][0]']               
                                                                                                  
 re_lu_65 (ReLU)                (None, 4, 4, 800)    0           ['add_25[0][0]']                 
                                                                                                  
 global_average_pooling2d_1 (Gl  (None, 800)         0           ['re_lu_65[0][0]']               
 obalAveragePooling2D)                                                                            
                                                                                                  
 flatten_1 (Flatten)            (None, 800)          0           ['global_average_pooling2d_1[0][0
                                                                 ]']                              
                                                                                                  
 dense_4 (Dense)                (None, 512)          410112      ['flatten_1[0][0]']              
                                                                                                  
 dense_5 (Dense)                (None, 5)            2565        ['dense_4[0][0]']                
                                                                                                  
==================================================================================================
Total params: 1,375,525
Trainable params: 1,355,125
Non-trainable params: 20,400
__________________________________________________________________________________________________
…
__________________________________________________________________________________________________
 Layer (type)                   Output Shape         Param #     Connected to                     
==================================================================================================
 input_4 (InputLayer)           [(None, 128, 128, 3  0           []                               
                                )]                                                                
                                                                                                  
 conv2d_99 (Conv2D)             (None, 64, 64, 24)   672         ['input_4[0][0]']                
                                                                                                  
 batch_normalization_147 (Batch  (None, 64, 64, 24)  96          ['conv2d_99[0][0]']              
 Normalization)                                                                                   
                                                                                                  
 re_lu_99 (ReLU)                (None, 64, 64, 24)   0           ['batch_normalization_147[0][0]']
                                                                                                  
 max_pooling2d_3 (MaxPooling2D)  (None, 32, 32, 24)  0           ['re_lu_99[0][0]']               
                                                                                                  
 conv2d_100 (Conv2D)            (None, 32, 32, 50)   650         ['max_pooling2d_3[0][0]']        
                                                                                                  
 batch_normalization_148 (Batch  (None, 32, 32, 50)  200         ['conv2d_100[0][0]']             
 Normalization)                                                                                   
                                                                                                  
 re_lu_100 (ReLU)               (None, 32, 32, 50)   0           ['batch_normalization_148[0][0]']
                                                                                                  
 reshape_96 (Reshape)           (None, 32, 32, 25,   0           ['re_lu_100[0][0]']              
                                2)                                                                
                                                                                                  
 permute_48 (Permute)           (None, 32, 32, 2, 2  0           ['reshape_96[0][0]']             
                                5)                                                                
                                                                                                  
 reshape_97 (Reshape)           (None, 32, 32, 50)   0           ['permute_48[0][0]']             
                                                                                                  
 depthwise_conv2d_48 (Depthwise  (None, 16, 16, 50)  500         ['reshape_97[0][0]']             
 Conv2D)                                                                                          
                                                                                                  
 batch_normalization_149 (Batch  (None, 16, 16, 50)  200         ['depthwise_conv2d_48[0][0]']    
 Normalization)                                                                                   
                                                                                                  
 conv2d_101 (Conv2D)            (None, 16, 16, 176)  4576        ['batch_normalization_149[0][0]']
                                                                                                  
 batch_normalization_150 (Batch  (None, 16, 16, 176)  704        ['conv2d_101[0][0]']             
 Normalization)                                                                                   
                                                                                                  
 average_pooling2d_9 (AveragePo  (None, 16, 16, 24)  0           ['max_pooling2d_3[0][0]']        
 oling2D)                                                                                         
                                                                                                  
 concatenate_9 (Concatenate)    (None, 16, 16, 200)  0           ['batch_normalization_150[0][0]',
                                                                  'average_pooling2d_9[0][0]']    
                                                                                                  
 re_lu_101 (ReLU)               (None, 16, 16, 200)  0           ['concatenate_9[0][0]']          
                                                                                                  
 conv2d_102 (Conv2D)            (None, 16, 16, 50)   5050        ['re_lu_101[0][0]']              
                                                                                                  
 batch_normalization_151 (Batch  (None, 16, 16, 50)  200         ['conv2d_102[0][0]']             
 Normalization)                                                                                   
                                                                                                  
 re_lu_102 (ReLU)               (None, 16, 16, 50)   0           ['batch_normalization_151[0][0]']
                                                                                                  
 reshape_98 (Reshape)           (None, 16, 16, 25,   0           ['re_lu_102[0][0]']              
                                2)                                                                
                                                                                                  
 permute_49 (Permute)           (None, 16, 16, 2, 2  0           ['reshape_98[0][0]']             
                                5)                                                                
                                                                                                  
 reshape_99 (Reshape)           (None, 16, 16, 50)   0           ['permute_49[0][0]']             
                                                                                                  
 depthwise_conv2d_49 (Depthwise  (None, 16, 16, 50)  500         ['reshape_99[0][0]']             
 Conv2D)                                                                                          
                                                                                                  
 batch_normalization_152 (Batch  (None, 16, 16, 50)  200         ['depthwise_conv2d_49[0][0]']    
 Normalization)                                                                                   
                                                                                                  
 conv2d_103 (Conv2D)            (None, 16, 16, 200)  5200        ['batch_normalization_152[0][0]']
                                                                                                  
 batch_normalization_153 (Batch  (None, 16, 16, 200)  800        ['conv2d_103[0][0]']             
 Normalization)                                                                                   
                                                                                                  
 add_39 (Add)                   (None, 16, 16, 200)  0           ['batch_normalization_153[0][0]',
                                                                  're_lu_101[0][0]']              
                                                                                                  
 re_lu_103 (ReLU)               (None, 16, 16, 200)  0           ['add_39[0][0]']                 
                                                                                                  
 conv2d_104 (Conv2D)            (None, 16, 16, 50)   5050        ['re_lu_103[0][0]']              
                                                                                                  
 batch_normalization_154 (Batch  (None, 16, 16, 50)  200         ['conv2d_104[0][0]']             
 Normalization)                                                                                   
                                                                                                  
 re_lu_104 (ReLU)               (None, 16, 16, 50)   0           ['batch_normalization_154[0][0]']
                                                                                                  
 reshape_100 (Reshape)          (None, 16, 16, 25,   0           ['re_lu_104[0][0]']              
                                2)                                                                
                                                                                                  
 permute_50 (Permute)           (None, 16, 16, 2, 2  0           ['reshape_100[0][0]']            
                                5)                                                                
                                                                                                  
 reshape_101 (Reshape)          (None, 16, 16, 50)   0           ['permute_50[0][0]']             
                                                                                                  
 depthwise_conv2d_50 (Depthwise  (None, 16, 16, 50)  500         ['reshape_101[0][0]']            
 Conv2D)                                                                                          
                                                                                                  
 batch_normalization_155 (Batch  (None, 16, 16, 50)  200         ['depthwise_conv2d_50[0][0]']    
 Normalization)                                                                                   
                                                                                                  
 conv2d_105 (Conv2D)            (None, 16, 16, 200)  5200        ['batch_normalization_155[0][0]']
                                                                                                  
 batch_normalization_156 (Batch  (None, 16, 16, 200)  800        ['conv2d_105[0][0]']             
 Normalization)                                                                                   
                                                                                                  
 add_40 (Add)                   (None, 16, 16, 200)  0           ['batch_normalization_156[0][0]',
                                                                  're_lu_103[0][0]']              
                                                                                                  
 re_lu_105 (ReLU)               (None, 16, 16, 200)  0           ['add_40[0][0]']                 
                                                                                                  
 conv2d_106 (Conv2D)            (None, 16, 16, 50)   5050        ['re_lu_105[0][0]']              
                                                                                                  
 batch_normalization_157 (Batch  (None, 16, 16, 50)  200         ['conv2d_106[0][0]']             
 Normalization)                                                                                   
                                                                                                  
 re_lu_106 (ReLU)               (None, 16, 16, 50)   0           ['batch_normalization_157[0][0]']
                                                                                                  
 reshape_102 (Reshape)          (None, 16, 16, 25,   0           ['re_lu_106[0][0]']              
                                2)                                                                
                                                                                                  
 permute_51 (Permute)           (None, 16, 16, 2, 2  0           ['reshape_102[0][0]']            
                                5)                                                                
                                                                                                  
 reshape_103 (Reshape)          (None, 16, 16, 50)   0           ['permute_51[0][0]']             
                                                                                                  
 depthwise_conv2d_51 (Depthwise  (None, 16, 16, 50)  500         ['reshape_103[0][0]']            
 Conv2D)                                                                                          
                                                                                                  
 batch_normalization_158 (Batch  (None, 16, 16, 50)  200         ['depthwise_conv2d_51[0][0]']    
 Normalization)                                                                                   
                                                                                                  
 conv2d_107 (Conv2D)            (None, 16, 16, 200)  5200        ['batch_normalization_158[0][0]']
                                                                                                  
 batch_normalization_159 (Batch  (None, 16, 16, 200)  800        ['conv2d_107[0][0]']             
 Normalization)                                                                                   
                                                                                                  
 add_41 (Add)                   (None, 16, 16, 200)  0           ['batch_normalization_159[0][0]',
                                                                  're_lu_105[0][0]']              
                                                                                                  
 re_lu_107 (ReLU)               (None, 16, 16, 200)  0           ['add_41[0][0]']                 
                                                                                                  
 conv2d_108 (Conv2D)            (None, 16, 16, 100)  10100       ['re_lu_107[0][0]']              
                                                                                                  
 batch_normalization_160 (Batch  (None, 16, 16, 100)  400        ['conv2d_108[0][0]']             
 Normalization)                                                                                   
                                                                                                  
 re_lu_108 (ReLU)               (None, 16, 16, 100)  0           ['batch_normalization_160[0][0]']
                                                                                                  
 reshape_104 (Reshape)          (None, 16, 16, 50,   0           ['re_lu_108[0][0]']              
                                2)                                                                
                                                                                                  
 permute_52 (Permute)           (None, 16, 16, 2, 5  0           ['reshape_104[0][0]']            
                                0)                                                                
                                                                                                  
 reshape_105 (Reshape)          (None, 16, 16, 100)  0           ['permute_52[0][0]']             
                                                                                                  
 depthwise_conv2d_52 (Depthwise  (None, 8, 8, 100)   1000        ['reshape_105[0][0]']            
 Conv2D)                                                                                          
                                                                                                  
 batch_normalization_161 (Batch  (None, 8, 8, 100)   400         ['depthwise_conv2d_52[0][0]']    
 Normalization)                                                                                   
                                                                                                  
 conv2d_109 (Conv2D)            (None, 8, 8, 200)    10200       ['batch_normalization_161[0][0]']
                                                                                                  
 batch_normalization_162 (Batch  (None, 8, 8, 200)   800         ['conv2d_109[0][0]']             
 Normalization)                                                                                   
                                                                                                  
 average_pooling2d_10 (AverageP  (None, 8, 8, 200)   0           ['re_lu_107[0][0]']              
 ooling2D)                                                                                        
                                                                                                  
 concatenate_10 (Concatenate)   (None, 8, 8, 400)    0           ['batch_normalization_162[0][0]',
                                                                  'average_pooling2d_10[0][0]']   
                                                                                                  
 re_lu_109 (ReLU)               (None, 8, 8, 400)    0           ['concatenate_10[0][0]']         
                                                                                                  
 conv2d_110 (Conv2D)            (None, 8, 8, 100)    20100       ['re_lu_109[0][0]']              
                                                                                                  
 batch_normalization_163 (Batch  (None, 8, 8, 100)   400         ['conv2d_110[0][0]']             
 Normalization)                                                                                   
                                                                                                  
 re_lu_110 (ReLU)               (None, 8, 8, 100)    0           ['batch_normalization_163[0][0]']
                                                                                                  
 reshape_106 (Reshape)          (None, 8, 8, 50, 2)  0           ['re_lu_110[0][0]']              
                                                                                                  
 permute_53 (Permute)           (None, 8, 8, 2, 50)  0           ['reshape_106[0][0]']            
                                                                                                  
 reshape_107 (Reshape)          (None, 8, 8, 100)    0           ['permute_53[0][0]']             
                                                                                                  
 depthwise_conv2d_53 (Depthwise  (None, 8, 8, 100)   1000        ['reshape_107[0][0]']            
 Conv2D)                                                                                          
                                                                                                  
 batch_normalization_164 (Batch  (None, 8, 8, 100)   400         ['depthwise_conv2d_53[0][0]']    
 Normalization)                                                                                   
                                                                                                  
 conv2d_111 (Conv2D)            (None, 8, 8, 400)    20400       ['batch_normalization_164[0][0]']
                                                                                                  
 batch_normalization_165 (Batch  (None, 8, 8, 400)   1600        ['conv2d_111[0][0]']             
 Normalization)                                                                                   
                                                                                                  
 add_42 (Add)                   (None, 8, 8, 400)    0           ['batch_normalization_165[0][0]',
                                                                  're_lu_109[0][0]']              
                                                                                                  
 re_lu_111 (ReLU)               (None, 8, 8, 400)    0           ['add_42[0][0]']                 
                                                                                                  
 conv2d_112 (Conv2D)            (None, 8, 8, 100)    20100       ['re_lu_111[0][0]']              
                                                                                                  
 batch_normalization_166 (Batch  (None, 8, 8, 100)   400         ['conv2d_112[0][0]']             
 Normalization)                                                                                   
                                                                                                  
 re_lu_112 (ReLU)               (None, 8, 8, 100)    0           ['batch_normalization_166[0][0]']
                                                                                                  
 reshape_108 (Reshape)          (None, 8, 8, 50, 2)  0           ['re_lu_112[0][0]']              
                                                                                                  
 permute_54 (Permute)           (None, 8, 8, 2, 50)  0           ['reshape_108[0][0]']            
                                                                                                  
 reshape_109 (Reshape)          (None, 8, 8, 100)    0           ['permute_54[0][0]']             
                                                                                                  
 depthwise_conv2d_54 (Depthwise  (None, 8, 8, 100)   1000        ['reshape_109[0][0]']            
 Conv2D)                                                                                          
                                                                                                  
 batch_normalization_167 (Batch  (None, 8, 8, 100)   400         ['depthwise_conv2d_54[0][0]']    
 Normalization)                                                                                   
                                                                                                  
 conv2d_113 (Conv2D)            (None, 8, 8, 400)    20400       ['batch_normalization_167[0][0]']
                                                                                                  
 batch_normalization_168 (Batch  (None, 8, 8, 400)   1600        ['conv2d_113[0][0]']             
 Normalization)                                                                                   
                                                                                                  
 add_43 (Add)                   (None, 8, 8, 400)    0           ['batch_normalization_168[0][0]',
                                                                  're_lu_111[0][0]']              
                                                                                                  
 re_lu_113 (ReLU)               (None, 8, 8, 400)    0           ['add_43[0][0]']                 
                                                                                                  
 conv2d_114 (Conv2D)            (None, 8, 8, 100)    20100       ['re_lu_113[0][0]']              
                                                                                                  
 batch_normalization_169 (Batch  (None, 8, 8, 100)   400         ['conv2d_114[0][0]']             
 Normalization)                                                                                   
                                                                                                  
 re_lu_114 (ReLU)               (None, 8, 8, 100)    0           ['batch_normalization_169[0][0]']
                                                                                                  
 reshape_110 (Reshape)          (None, 8, 8, 50, 2)  0           ['re_lu_114[0][0]']              
                                                                                                  
 permute_55 (Permute)           (None, 8, 8, 2, 50)  0           ['reshape_110[0][0]']            
                                                                                                  
 reshape_111 (Reshape)          (None, 8, 8, 100)    0           ['permute_55[0][0]']             
                                                                                                  
 depthwise_conv2d_55 (Depthwise  (None, 8, 8, 100)   1000        ['reshape_111[0][0]']            
 Conv2D)                                                                                          
                                                                                                  
 batch_normalization_170 (Batch  (None, 8, 8, 100)   400         ['depthwise_conv2d_55[0][0]']    
 Normalization)                                                                                   
                                                                                                  
 conv2d_115 (Conv2D)            (None, 8, 8, 400)    20400       ['batch_normalization_170[0][0]']
                                                                                                  
 batch_normalization_171 (Batch  (None, 8, 8, 400)   1600        ['conv2d_115[0][0]']             
 Normalization)                                                                                   
                                                                                                  
 add_44 (Add)                   (None, 8, 8, 400)    0           ['batch_normalization_171[0][0]',
                                                                  're_lu_113[0][0]']              
                                                                                                  
 re_lu_115 (ReLU)               (None, 8, 8, 400)    0           ['add_44[0][0]']                 
                                                                                                  
 conv2d_116 (Conv2D)            (None, 8, 8, 100)    20100       ['re_lu_115[0][0]']              
                                                                                                  
 batch_normalization_172 (Batch  (None, 8, 8, 100)   400         ['conv2d_116[0][0]']             
 Normalization)                                                                                   
                                                                                                  
 re_lu_116 (ReLU)               (None, 8, 8, 100)    0           ['batch_normalization_172[0][0]']
                                                                                                  
 reshape_112 (Reshape)          (None, 8, 8, 50, 2)  0           ['re_lu_116[0][0]']              
                                                                                                  
 permute_56 (Permute)           (None, 8, 8, 2, 50)  0           ['reshape_112[0][0]']            
                                                                                                  
 reshape_113 (Reshape)          (None, 8, 8, 100)    0           ['permute_56[0][0]']             
                                                                                                  
 depthwise_conv2d_56 (Depthwise  (None, 8, 8, 100)   1000        ['reshape_113[0][0]']            
 Conv2D)                                                                                          
                                                                                                  
 batch_normalization_173 (Batch  (None, 8, 8, 100)   400         ['depthwise_conv2d_56[0][0]']    
 Normalization)                                                                                   
                                                                                                  
 conv2d_117 (Conv2D)            (None, 8, 8, 400)    20400       ['batch_normalization_173[0][0]']
                                                                                                  
 batch_normalization_174 (Batch  (None, 8, 8, 400)   1600        ['conv2d_117[0][0]']             
 Normalization)                                                                                   
                                                                                                  
 add_45 (Add)                   (None, 8, 8, 400)    0           ['batch_normalization_174[0][0]',
                                                                  're_lu_115[0][0]']              
                                                                                                  
 re_lu_117 (ReLU)               (None, 8, 8, 400)    0           ['add_45[0][0]']                 
                                                                                                  
 conv2d_118 (Conv2D)            (None, 8, 8, 100)    20100       ['re_lu_117[0][0]']              
                                                                                                  
 batch_normalization_175 (Batch  (None, 8, 8, 100)   400         ['conv2d_118[0][0]']             
 Normalization)                                                                                   
                                                                                                  
 re_lu_118 (ReLU)               (None, 8, 8, 100)    0           ['batch_normalization_175[0][0]']
                                                                                                  
 reshape_114 (Reshape)          (None, 8, 8, 50, 2)  0           ['re_lu_118[0][0]']              
                                                                                                  
 permute_57 (Permute)           (None, 8, 8, 2, 50)  0           ['reshape_114[0][0]']            
                                                                                                  
 reshape_115 (Reshape)          (None, 8, 8, 100)    0           ['permute_57[0][0]']             
                                                                                                  
 depthwise_conv2d_57 (Depthwise  (None, 8, 8, 100)   1000        ['reshape_115[0][0]']            
 Conv2D)                                                                                          
                                                                                                  
 batch_normalization_176 (Batch  (None, 8, 8, 100)   400         ['depthwise_conv2d_57[0][0]']    
 Normalization)                                                                                   
                                                                                                  
 conv2d_119 (Conv2D)            (None, 8, 8, 400)    20400       ['batch_normalization_176[0][0]']
                                                                                                  
 batch_normalization_177 (Batch  (None, 8, 8, 400)   1600        ['conv2d_119[0][0]']             
 Normalization)                                                                                   
                                                                                                  
 add_46 (Add)                   (None, 8, 8, 400)    0           ['batch_normalization_177[0][0]',
                                                                  're_lu_117[0][0]']              
                                                                                                  
 re_lu_119 (ReLU)               (None, 8, 8, 400)    0           ['add_46[0][0]']                 
                                                                                                  
 conv2d_120 (Conv2D)            (None, 8, 8, 100)    20100       ['re_lu_119[0][0]']              
                                                                                                  
 batch_normalization_178 (Batch  (None, 8, 8, 100)   400         ['conv2d_120[0][0]']             
 Normalization)                                                                                   
                                                                                                  
 re_lu_120 (ReLU)               (None, 8, 8, 100)    0           ['batch_normalization_178[0][0]']
                                                                                                  
 reshape_116 (Reshape)          (None, 8, 8, 50, 2)  0           ['re_lu_120[0][0]']              
                                                                                                  
 permute_58 (Permute)           (None, 8, 8, 2, 50)  0           ['reshape_116[0][0]']            
                                                                                                  
 reshape_117 (Reshape)          (None, 8, 8, 100)    0           ['permute_58[0][0]']             
                                                                                                  
 depthwise_conv2d_58 (Depthwise  (None, 8, 8, 100)   1000        ['reshape_117[0][0]']            
 Conv2D)                                                                                          
                                                                                                  
 batch_normalization_179 (Batch  (None, 8, 8, 100)   400         ['depthwise_conv2d_58[0][0]']    
 Normalization)                                                                                   
                                                                                                  
 conv2d_121 (Conv2D)            (None, 8, 8, 400)    20400       ['batch_normalization_179[0][0]']
                                                                                                  
 batch_normalization_180 (Batch  (None, 8, 8, 400)   1600        ['conv2d_121[0][0]']             
 Normalization)                                                                                   
                                                                                                  
 add_47 (Add)                   (None, 8, 8, 400)    0           ['batch_normalization_180[0][0]',
                                                                  're_lu_119[0][0]']              
                                                                                                  
 re_lu_121 (ReLU)               (None, 8, 8, 400)    0           ['add_47[0][0]']                 
                                                                                                  
 conv2d_122 (Conv2D)            (None, 8, 8, 100)    20100       ['re_lu_121[0][0]']              
                                                                                                  
 batch_normalization_181 (Batch  (None, 8, 8, 100)   400         ['conv2d_122[0][0]']             
 Normalization)                                                                                   
                                                                                                  
 re_lu_122 (ReLU)               (None, 8, 8, 100)    0           ['batch_normalization_181[0][0]']
                                                                                                  
 reshape_118 (Reshape)          (None, 8, 8, 50, 2)  0           ['re_lu_122[0][0]']              
                                                                                                  
 permute_59 (Permute)           (None, 8, 8, 2, 50)  0           ['reshape_118[0][0]']            
                                                                                                  
 reshape_119 (Reshape)          (None, 8, 8, 100)    0           ['permute_59[0][0]']             
                                                                                                  
 depthwise_conv2d_59 (Depthwise  (None, 8, 8, 100)   1000        ['reshape_119[0][0]']            
 Conv2D)                                                                                          
                                                                                                  
 batch_normalization_182 (Batch  (None, 8, 8, 100)   400         ['depthwise_conv2d_59[0][0]']    
 Normalization)                                                                                   
                                                                                                  
 conv2d_123 (Conv2D)            (None, 8, 8, 400)    20400       ['batch_normalization_182[0][0]']
                                                                                                  
 batch_normalization_183 (Batch  (None, 8, 8, 400)   1600        ['conv2d_123[0][0]']             
 Normalization)                                                                                   
                                                                                                  
 add_48 (Add)                   (None, 8, 8, 400)    0           ['batch_normalization_183[0][0]',
                                                                  're_lu_121[0][0]']              
                                                                                                  
 re_lu_123 (ReLU)               (None, 8, 8, 400)    0           ['add_48[0][0]']                 
                                                                                                  
 conv2d_124 (Conv2D)            (None, 8, 8, 200)    40200       ['re_lu_123[0][0]']              
                                                                                                  
 batch_normalization_184 (Batch  (None, 8, 8, 200)   800         ['conv2d_124[0][0]']             
 Normalization)                                                                                   
                                                                                                  
 re_lu_124 (ReLU)               (None, 8, 8, 200)    0           ['batch_normalization_184[0][0]']
                                                                                                  
 reshape_120 (Reshape)          (None, 8, 8, 100, 2  0           ['re_lu_124[0][0]']              
                                )                                                                 
                                                                                                  
 permute_60 (Permute)           (None, 8, 8, 2, 100  0           ['reshape_120[0][0]']            
                                )                                                                 
                                                                                                  
 reshape_121 (Reshape)          (None, 8, 8, 200)    0           ['permute_60[0][0]']             
                                                                                                  
 depthwise_conv2d_60 (Depthwise  (None, 4, 4, 200)   2000        ['reshape_121[0][0]']            
 Conv2D)                                                                                          
                                                                                                  
 batch_normalization_185 (Batch  (None, 4, 4, 200)   800         ['depthwise_conv2d_60[0][0]']    
 Normalization)                                                                                   
                                                                                                  
 conv2d_125 (Conv2D)            (None, 4, 4, 400)    40400       ['batch_normalization_185[0][0]']
                                                                                                  
 batch_normalization_186 (Batch  (None, 4, 4, 400)   1600        ['conv2d_125[0][0]']             
 Normalization)                                                                                   
                                                                                                  
 average_pooling2d_11 (AverageP  (None, 4, 4, 400)   0           ['re_lu_123[0][0]']              
 ooling2D)                                                                                        
                                                                                                  
 concatenate_11 (Concatenate)   (None, 4, 4, 800)    0           ['batch_normalization_186[0][0]',
                                                                  'average_pooling2d_11[0][0]']   
                                                                                                  
 re_lu_125 (ReLU)               (None, 4, 4, 800)    0           ['concatenate_11[0][0]']         
                                                                                                  
 conv2d_126 (Conv2D)            (None, 4, 4, 200)    80200       ['re_lu_125[0][0]']              
                                                                                                  
 batch_normalization_187 (Batch  (None, 4, 4, 200)   800         ['conv2d_126[0][0]']             
 Normalization)                                                                                   
                                                                                                  
 re_lu_126 (ReLU)               (None, 4, 4, 200)    0           ['batch_normalization_187[0][0]']
                                                                                                  
 reshape_122 (Reshape)          (None, 4, 4, 100, 2  0           ['re_lu_126[0][0]']              
                                )                                                                 
                                                                                                  
 permute_61 (Permute)           (None, 4, 4, 2, 100  0           ['reshape_122[0][0]']            
                                )                                                                 
                                                                                                  
 reshape_123 (Reshape)          (None, 4, 4, 200)    0           ['permute_61[0][0]']             
                                                                                                  
 depthwise_conv2d_61 (Depthwise  (None, 4, 4, 200)   2000        ['reshape_123[0][0]']            
 Conv2D)                                                                                          
                                                                                                  
 batch_normalization_188 (Batch  (None, 4, 4, 200)   800         ['depthwise_conv2d_61[0][0]']    
 Normalization)                                                                                   
                                                                                                  
 conv2d_127 (Conv2D)            (None, 4, 4, 800)    80800       ['batch_normalization_188[0][0]']
                                                                                                  
 batch_normalization_189 (Batch  (None, 4, 4, 800)   3200        ['conv2d_127[0][0]']             
 Normalization)                                                                                   
                                                                                                  
 add_49 (Add)                   (None, 4, 4, 800)    0           ['batch_normalization_189[0][0]',
                                                                  're_lu_125[0][0]']              
                                                                                                  
 re_lu_127 (ReLU)               (None, 4, 4, 800)    0           ['add_49[0][0]']                 
                                                                                                  
 conv2d_128 (Conv2D)            (None, 4, 4, 200)    80200       ['re_lu_127[0][0]']              
                                                                                                  
 batch_normalization_190 (Batch  (None, 4, 4, 200)   800         ['conv2d_128[0][0]']             
 Normalization)                                                                                   
                                                                                                  
 re_lu_128 (ReLU)               (None, 4, 4, 200)    0           ['batch_normalization_190[0][0]']
                                                                                                  
 reshape_124 (Reshape)          (None, 4, 4, 100, 2  0           ['re_lu_128[0][0]']              
                                )                                                                 
                                                                                                  
 permute_62 (Permute)           (None, 4, 4, 2, 100  0           ['reshape_124[0][0]']            
                                )                                                                 
                                                                                                  
 reshape_125 (Reshape)          (None, 4, 4, 200)    0           ['permute_62[0][0]']             
                                                                                                  
 depthwise_conv2d_62 (Depthwise  (None, 4, 4, 200)   2000        ['reshape_125[0][0]']            
 Conv2D)                                                                                          
                                                                                                  
 batch_normalization_191 (Batch  (None, 4, 4, 200)   800         ['depthwise_conv2d_62[0][0]']    
 Normalization)                                                                                   
                                                                                                  
 conv2d_129 (Conv2D)            (None, 4, 4, 800)    80800       ['batch_normalization_191[0][0]']
                                                                                                  
 batch_normalization_192 (Batch  (None, 4, 4, 800)   3200        ['conv2d_129[0][0]']             
 Normalization)                                                                                   
                                                                                                  
 add_50 (Add)                   (None, 4, 4, 800)    0           ['batch_normalization_192[0][0]',
                                                                  're_lu_127[0][0]']              
                                                                                                  
 re_lu_129 (ReLU)               (None, 4, 4, 800)    0           ['add_50[0][0]']                 
                                                                                                  
 conv2d_130 (Conv2D)            (None, 4, 4, 200)    80200       ['re_lu_129[0][0]']              
                                                                                                  
…
 max_pooling2d_7 (MaxPooling2D)  (None, 32, 32, 24)  0           ['re_lu_231[0][0]']              
                                                                                                  
 conv2d_232 (Conv2D)            (None, 32, 32, 50)   650         ['max_pooling2d_7[0][0]']        
                                                                                                  
 batch_normalization_344 (Batch  (None, 32, 32, 50)  200         ['conv2d_232[0][0]']             
 Normalization)                                                                                   
                                                                                                  
 re_lu_232 (ReLU)               (None, 32, 32, 50)   0           ['batch_normalization_344[0][0]']
                                                                                                  
 reshape_224 (Reshape)          (None, 32, 32, 25,   0           ['re_lu_232[0][0]']              
                                2)                                                                
                                                                                                  
 permute_112 (Permute)          (None, 32, 32, 2, 2  0           ['reshape_224[0][0]']            
                                5)                                                                
                                                                                                  
 reshape_225 (Reshape)          (None, 32, 32, 50)   0           ['permute_112[0][0]']            
                                                                                                  
 depthwise_conv2d_112 (Depthwis  (None, 16, 16, 50)  500         ['reshape_225[0][0]']            
 eConv2D)                                                                                         
                                                                                                  
 batch_normalization_345 (Batch  (None, 16, 16, 50)  200         ['depthwise_conv2d_112[0][0]']   
 Normalization)                                                                                   
                                                                                                  
 conv2d_233 (Conv2D)            (None, 16, 16, 176)  4576        ['batch_normalization_345[0][0]']
                                                                                                  
 batch_normalization_346 (Batch  (None, 16, 16, 176)  704        ['conv2d_233[0][0]']             
 Normalization)                                                                                   
                                                                                                  
 average_pooling2d_21 (AverageP  (None, 16, 16, 24)  0           ['max_pooling2d_7[0][0]']        
 ooling2D)                                                                                        
                                                                                                  
 concatenate_21 (Concatenate)   (None, 16, 16, 200)  0           ['batch_normalization_346[0][0]',
                                                                  'average_pooling2d_21[0][0]']   
                                                                                                  
 re_lu_233 (ReLU)               (None, 16, 16, 200)  0           ['concatenate_21[0][0]']         
                                                                                                  
 conv2d_234 (Conv2D)            (None, 16, 16, 50)   5050        ['re_lu_233[0][0]']              
                                                                                                  
 batch_normalization_347 (Batch  (None, 16, 16, 50)  200         ['conv2d_234[0][0]']             
 Normalization)                                                                                   
                                                                                                  
 re_lu_234 (ReLU)               (None, 16, 16, 50)   0           ['batch_normalization_347[0][0]']
                                                                                                  
 reshape_226 (Reshape)          (None, 16, 16, 25,   0           ['re_lu_234[0][0]']              
                                2)                                                                
                                                                                                  
 permute_113 (Permute)          (None, 16, 16, 2, 2  0           ['reshape_226[0][0]']            
                                5)                                                                
                                                                                                  
 reshape_227 (Reshape)          (None, 16, 16, 50)   0           ['permute_113[0][0]']            
                                                                                                  
 depthwise_conv2d_113 (Depthwis  (None, 16, 16, 50)  500         ['reshape_227[0][0]']            
 eConv2D)                                                                                         
                                                                                                  
 batch_normalization_348 (Batch  (None, 16, 16, 50)  200         ['depthwise_conv2d_113[0][0]']   
 Normalization)                                                                                   
                                                                                                  
 conv2d_235 (Conv2D)            (None, 16, 16, 200)  5200        ['batch_normalization_348[0][0]']
                                                                                                  
 batch_normalization_349 (Batch  (None, 16, 16, 200)  800        ['conv2d_235[0][0]']             
 Normalization)                                                                                   
                                                                                                  
 add_91 (Add)                   (None, 16, 16, 200)  0           ['batch_normalization_349[0][0]',
                                                                  're_lu_233[0][0]']              
                                                                                                  
 re_lu_235 (ReLU)               (None, 16, 16, 200)  0           ['add_91[0][0]']                 
                                                                                                  
 conv2d_236 (Conv2D)            (None, 16, 16, 50)   5050        ['re_lu_235[0][0]']              
                                                                                                  
 batch_normalization_350 (Batch  (None, 16, 16, 50)  200         ['conv2d_236[0][0]']             
 Normalization)                                                                                   
                                                                                                  
 re_lu_236 (ReLU)               (None, 16, 16, 50)   0           ['batch_normalization_350[0][0]']
                                                                                                  
 reshape_228 (Reshape)          (None, 16, 16, 25,   0           ['re_lu_236[0][0]']              
                                2)                                                                
                                                                                                  
 permute_114 (Permute)          (None, 16, 16, 2, 2  0           ['reshape_228[0][0]']            
                                5)                                                                
                                                                                                  
 reshape_229 (Reshape)          (None, 16, 16, 50)   0           ['permute_114[0][0]']            
                                                                                                  
 depthwise_conv2d_114 (Depthwis  (None, 16, 16, 50)  500         ['reshape_229[0][0]']            
 eConv2D)                                                                                         
                                                                                                  
 batch_normalization_351 (Batch  (None, 16, 16, 50)  200         ['depthwise_conv2d_114[0][0]']   
 Normalization)                                                                                   
                                                                                                  
 conv2d_237 (Conv2D)            (None, 16, 16, 200)  5200        ['batch_normalization_351[0][0]']
                                                                                                  
 batch_normalization_352 (Batch  (None, 16, 16, 200)  800        ['conv2d_237[0][0]']             
 Normalization)                                                                                   
                                                                                                  
 add_92 (Add)                   (None, 16, 16, 200)  0           ['batch_normalization_352[0][0]',
                                                                  're_lu_235[0][0]']              
                                                                                                  
 re_lu_237 (ReLU)               (None, 16, 16, 200)  0           ['add_92[0][0]']                 
                                                                                                  
 conv2d_238 (Conv2D)            (None, 16, 16, 50)   5050        ['re_lu_237[0][0]']              
                                                                                                  
 batch_normalization_353 (Batch  (None, 16, 16, 50)  200         ['conv2d_238[0][0]']             
 Normalization)                                                                                   
                                                                                                  
 re_lu_238 (ReLU)               (None, 16, 16, 50)   0           ['batch_normalization_353[0][0]']
                                                                                                  
 reshape_230 (Reshape)          (None, 16, 16, 25,   0           ['re_lu_238[0][0]']              
                                2)                                                                
                                                                                                  
 permute_115 (Permute)          (None, 16, 16, 2, 2  0           ['reshape_230[0][0]']            
                                5)                                                                
                                                                                                  
 reshape_231 (Reshape)          (None, 16, 16, 50)   0           ['permute_115[0][0]']            
                                                                                                  
 depthwise_conv2d_115 (Depthwis  (None, 16, 16, 50)  500         ['reshape_231[0][0]']            
 eConv2D)                                                                                         
                                                                                                  
 batch_normalization_354 (Batch  (None, 16, 16, 50)  200         ['depthwise_conv2d_115[0][0]']   
 Normalization)                                                                                   
                                                                                                  
 conv2d_239 (Conv2D)            (None, 16, 16, 200)  5200        ['batch_normalization_354[0][0]']
                                                                                                  
 batch_normalization_355 (Batch  (None, 16, 16, 200)  800        ['conv2d_239[0][0]']             
 Normalization)                                                                                   
                                                                                                  
 add_93 (Add)                   (None, 16, 16, 200)  0           ['batch_normalization_355[0][0]',
                                                                  're_lu_237[0][0]']              
                                                                                                  
 re_lu_239 (ReLU)               (None, 16, 16, 200)  0           ['add_93[0][0]']                 
                                                                                                  
 conv2d_240 (Conv2D)            (None, 16, 16, 100)  10100       ['re_lu_239[0][0]']              
                                                                                                  
 batch_normalization_356 (Batch  (None, 16, 16, 100)  400        ['conv2d_240[0][0]']             
 Normalization)                                                                                   
                                                                                                  
 re_lu_240 (ReLU)               (None, 16, 16, 100)  0           ['batch_normalization_356[0][0]']
                                                                                                  
 reshape_232 (Reshape)          (None, 16, 16, 50,   0           ['re_lu_240[0][0]']              
                                2)                                                                
                                                                                                  
 permute_116 (Permute)          (None, 16, 16, 2, 5  0           ['reshape_232[0][0]']            
                                0)                                                                
                                                                                                  
 reshape_233 (Reshape)          (None, 16, 16, 100)  0           ['permute_116[0][0]']            
                                                                                                  
 depthwise_conv2d_116 (Depthwis  (None, 8, 8, 100)   1000        ['reshape_233[0][0]']            
 eConv2D)                                                                                         
                                                                                                  
 batch_normalization_357 (Batch  (None, 8, 8, 100)   400         ['depthwise_conv2d_116[0][0]']   
 Normalization)                                                                                   
                                                                                                  
 conv2d_241 (Conv2D)            (None, 8, 8, 200)    10200       ['batch_normalization_357[0][0]']
                                                                                                  
 batch_normalization_358 (Batch  (None, 8, 8, 200)   800         ['conv2d_241[0][0]']             
 Normalization)                                                                                   
                                                                                                  
 average_pooling2d_22 (AverageP  (None, 8, 8, 200)   0           ['re_lu_239[0][0]']              
 ooling2D)                                                                                        
                                                                                                  
 concatenate_22 (Concatenate)   (None, 8, 8, 400)    0           ['batch_normalization_358[0][0]',
                                                                  'average_pooling2d_22[0][0]']   
                                                                                                  
 re_lu_241 (ReLU)               (None, 8, 8, 400)    0           ['concatenate_22[0][0]']         
                                                                                                  
 conv2d_242 (Conv2D)            (None, 8, 8, 100)    20100       ['re_lu_241[0][0]']              
                                                                                                  
 batch_normalization_359 (Batch  (None, 8, 8, 100)   400         ['conv2d_242[0][0]']             
 Normalization)                                                                                   
                                                                                                  
 re_lu_242 (ReLU)               (None, 8, 8, 100)    0           ['batch_normalization_359[0][0]']
                                                                                                  
 reshape_234 (Reshape)          (None, 8, 8, 50, 2)  0           ['re_lu_242[0][0]']              
                                                                                                  
 permute_117 (Permute)          (None, 8, 8, 2, 50)  0           ['reshape_234[0][0]']            
                                                                                                  
 reshape_235 (Reshape)          (None, 8, 8, 100)    0           ['permute_117[0][0]']            
                                                                                                  
 depthwise_conv2d_117 (Depthwis  (None, 8, 8, 100)   1000        ['reshape_235[0][0]']            
 eConv2D)                                                                                         
                                                                                                  
 batch_normalization_360 (Batch  (None, 8, 8, 100)   400         ['depthwise_conv2d_117[0][0]']   
 Normalization)                                                                                   
                                                                                                  
 conv2d_243 (Conv2D)            (None, 8, 8, 400)    20400       ['batch_normalization_360[0][0]']
                                                                                                  
 batch_normalization_361 (Batch  (None, 8, 8, 400)   1600        ['conv2d_243[0][0]']             
 Normalization)                                                                                   
                                                                                                  
 add_94 (Add)                   (None, 8, 8, 400)    0           ['batch_normalization_361[0][0]',
                                                                  're_lu_241[0][0]']              
                                                                                                  
 re_lu_243 (ReLU)               (None, 8, 8, 400)    0           ['add_94[0][0]']                 
                                                                                                  
 conv2d_244 (Conv2D)            (None, 8, 8, 100)    20100       ['re_lu_243[0][0]']              
                                                                                                  
 batch_normalization_362 (Batch  (None, 8, 8, 100)   400         ['conv2d_244[0][0]']             
 Normalization)                                                                                   
                                                                                                  
 re_lu_244 (ReLU)               (None, 8, 8, 100)    0           ['batch_normalization_362[0][0]']
                                                                                                  
 reshape_236 (Reshape)          (None, 8, 8, 50, 2)  0           ['re_lu_244[0][0]']              
                                                                                                  
 permute_118 (Permute)          (None, 8, 8, 2, 50)  0           ['reshape_236[0][0]']            
                                                                                                  
 reshape_237 (Reshape)          (None, 8, 8, 100)    0           ['permute_118[0][0]']            
                                                                                                  
 depthwise_conv2d_118 (Depthwis  (None, 8, 8, 100)   1000        ['reshape_237[0][0]']            
 eConv2D)                                                                                         
                                                                                                  
 batch_normalization_363 (Batch  (None, 8, 8, 100)   400         ['depthwise_conv2d_118[0][0]']   
 Normalization)                                                                                   
                                                                                                  
 conv2d_245 (Conv2D)            (None, 8, 8, 400)    20400       ['batch_normalization_363[0][0]']
                                                                                                  
 batch_normalization_364 (Batch  (None, 8, 8, 400)   1600        ['conv2d_245[0][0]']             
 Normalization)                                                                                   
                                                                                                  
 add_95 (Add)                   (None, 8, 8, 400)    0           ['batch_normalization_364[0][0]',
                                                                  're_lu_243[0][0]']              
                                                                                                  
 re_lu_245 (ReLU)               (None, 8, 8, 400)    0           ['add_95[0][0]']                 
                                                                                                  
 conv2d_246 (Conv2D)            (None, 8, 8, 100)    20100       ['re_lu_245[0][0]']              
                                                                                                  
 batch_normalization_365 (Batch  (None, 8, 8, 100)   400         ['conv2d_246[0][0]']             
 Normalization)                                                                                   
                                                                                                  
 re_lu_246 (ReLU)               (None, 8, 8, 100)    0           ['batch_normalization_365[0][0]']
                                                                                                  
 reshape_238 (Reshape)          (None, 8, 8, 50, 2)  0           ['re_lu_246[0][0]']              
                                                                                                  
 permute_119 (Permute)          (None, 8, 8, 2, 50)  0           ['reshape_238[0][0]']            
                                                                                                  
 reshape_239 (Reshape)          (None, 8, 8, 100)    0           ['permute_119[0][0]']            
                                                                                                  
 depthwise_conv2d_119 (Depthwis  (None, 8, 8, 100)   1000        ['reshape_239[0][0]']            
 eConv2D)                                                                                         
                                                                                                  
 batch_normalization_366 (Batch  (None, 8, 8, 100)   400         ['depthwise_conv2d_119[0][0]']   
 Normalization)                                                                                   
                                                                                                  
 conv2d_247 (Conv2D)            (None, 8, 8, 400)    20400       ['batch_normalization_366[0][0]']
                                                                                                  
 batch_normalization_367 (Batch  (None, 8, 8, 400)   1600        ['conv2d_247[0][0]']             
 Normalization)                                                                                   
                                                                                                  
 add_96 (Add)                   (None, 8, 8, 400)    0           ['batch_normalization_367[0][0]',
                                                                  're_lu_245[0][0]']              
                                                                                                  
 re_lu_247 (ReLU)               (None, 8, 8, 400)    0           ['add_96[0][0]']                 
                                                                                                  
 conv2d_248 (Conv2D)            (None, 8, 8, 100)    20100       ['re_lu_247[0][0]']              
                                                                                                  
 batch_normalization_368 (Batch  (None, 8, 8, 100)   400         ['conv2d_248[0][0]']             
 Normalization)                                                                                   
                                                                                                  
 re_lu_248 (ReLU)               (None, 8, 8, 100)    0           ['batch_normalization_368[0][0]']
                                                                                                  
 reshape_240 (Reshape)          (None, 8, 8, 50, 2)  0           ['re_lu_248[0][0]']              
                                                                                                  
 permute_120 (Permute)          (None, 8, 8, 2, 50)  0           ['reshape_240[0][0]']            
                                                                                                  
 reshape_241 (Reshape)          (None, 8, 8, 100)    0           ['permute_120[0][0]']            
                                                                                                  
 depthwise_conv2d_120 (Depthwis  (None, 8, 8, 100)   1000        ['reshape_241[0][0]']            
 eConv2D)                                                                                         
                                                                                                  
 batch_normalization_369 (Batch  (None, 8, 8, 100)   400         ['depthwise_conv2d_120[0][0]']   
 Normalization)                                                                                   
                                                                                                  
 conv2d_249 (Conv2D)            (None, 8, 8, 400)    20400       ['batch_normalization_369[0][0]']
                                                                                                  
 batch_normalization_370 (Batch  (None, 8, 8, 400)   1600        ['conv2d_249[0][0]']             
 Normalization)                                                                                   
                                                                                                  
 add_97 (Add)                   (None, 8, 8, 400)    0           ['batch_normalization_370[0][0]',
                                                                  're_lu_247[0][0]']              
                                                                                                  
 re_lu_249 (ReLU)               (None, 8, 8, 400)    0           ['add_97[0][0]']                 
                                                                                                  
 conv2d_250 (Conv2D)            (None, 8, 8, 100)    20100       ['re_lu_249[0][0]']              
                                                                                                  
 batch_normalization_371 (Batch  (None, 8, 8, 100)   400         ['conv2d_250[0][0]']             
 Normalization)                                                                                   
                                                                                                  
 re_lu_250 (ReLU)               (None, 8, 8, 100)    0           ['batch_normalization_371[0][0]']
                                                                                                  
 reshape_242 (Reshape)          (None, 8, 8, 50, 2)  0           ['re_lu_250[0][0]']              
                                                                                                  
 permute_121 (Permute)          (None, 8, 8, 2, 50)  0           ['reshape_242[0][0]']            
                                                                                                  
 reshape_243 (Reshape)          (None, 8, 8, 100)    0           ['permute_121[0][0]']            
                                                                                                  
 depthwise_conv2d_121 (Depthwis  (None, 8, 8, 100)   1000        ['reshape_243[0][0]']            
 eConv2D)                                                                                         
                                                                                                  
 batch_normalization_372 (Batch  (None, 8, 8, 100)   400         ['depthwise_conv2d_121[0][0]']   
 Normalization)                                                                                   
                                                                                                  
 conv2d_251 (Conv2D)            (None, 8, 8, 400)    20400       ['batch_normalization_372[0][0]']
                                                                                                  
 batch_normalization_373 (Batch  (None, 8, 8, 400)   1600        ['conv2d_251[0][0]']             
 Normalization)                                                                                   
                                                                                                  
 add_98 (Add)                   (None, 8, 8, 400)    0           ['batch_normalization_373[0][0]',
                                                                  're_lu_249[0][0]']              
                                                                                                  
 re_lu_251 (ReLU)               (None, 8, 8, 400)    0           ['add_98[0][0]']                 
                                                                                                  
 conv2d_252 (Conv2D)            (None, 8, 8, 100)    20100       ['re_lu_251[0][0]']              
                                                                                                  
 batch_normalization_374 (Batch  (None, 8, 8, 100)   400         ['conv2d_252[0][0]']             
 Normalization)                                                                                   
                                                                                                  
 re_lu_252 (ReLU)               (None, 8, 8, 100)    0           ['batch_normalization_374[0][0]']
                                                                                                  
 reshape_244 (Reshape)          (None, 8, 8, 50, 2)  0           ['re_lu_252[0][0]']              
                                                                                                  
 permute_122 (Permute)          (None, 8, 8, 2, 50)  0           ['reshape_244[0][0]']            
                                                                                                  
 reshape_245 (Reshape)          (None, 8, 8, 100)    0           ['permute_122[0][0]']            
                                                                                                  
 depthwise_conv2d_122 (Depthwis  (None, 8, 8, 100)   1000        ['reshape_245[0][0]']            
 eConv2D)                                                                                         
                                                                                                  
 batch_normalization_375 (Batch  (None, 8, 8, 100)   400         ['depthwise_conv2d_122[0][0]']   
 Normalization)                                                                                   
                                                                                                  
 conv2d_253 (Conv2D)            (None, 8, 8, 400)    20400       ['batch_normalization_375[0][0]']
                                                                                                  
 batch_normalization_376 (Batch  (None, 8, 8, 400)   1600        ['conv2d_253[0][0]']             
 Normalization)                                                                                   
                                                                                                  
 add_99 (Add)                   (None, 8, 8, 400)    0           ['batch_normalization_376[0][0]',
                                                                  're_lu_251[0][0]']              
                                                                                                  
 re_lu_253 (ReLU)               (None, 8, 8, 400)    0           ['add_99[0][0]']                 
                                                                                                  
 conv2d_254 (Conv2D)            (None, 8, 8, 100)    20100       ['re_lu_253[0][0]']              
                                                                                                  
 batch_normalization_377 (Batch  (None, 8, 8, 100)   400         ['conv2d_254[0][0]']             
 Normalization)                                                                                   
                                                                                                  
 re_lu_254 (ReLU)               (None, 8, 8, 100)    0           ['batch_normalization_377[0][0]']
                                                                                                  
 reshape_246 (Reshape)          (None, 8, 8, 50, 2)  0           ['re_lu_254[0][0]']              
                                                                                                  
 permute_123 (Permute)          (None, 8, 8, 2, 50)  0           ['reshape_246[0][0]']            
                                                                                                  
 reshape_247 (Reshape)          (None, 8, 8, 100)    0           ['permute_123[0][0]']            
                                                                                                  
 depthwise_conv2d_123 (Depthwis  (None, 8, 8, 100)   1000        ['reshape_247[0][0]']            
 eConv2D)                                                                                         
                                                                                                  
 batch_normalization_378 (Batch  (None, 8, 8, 100)   400         ['depthwise_conv2d_123[0][0]']   
 Normalization)                                                                                   
                                                                                                  
 conv2d_255 (Conv2D)            (None, 8, 8, 400)    20400       ['batch_normalization_378[0][0]']
                                                                                                  
 batch_normalization_379 (Batch  (None, 8, 8, 400)   1600        ['conv2d_255[0][0]']             
 Normalization)                                                                                   
                                                                                                  
 add_100 (Add)                  (None, 8, 8, 400)    0           ['batch_normalization_379[0][0]',
                                                                  're_lu_253[0][0]']              
                                                                                                  
 re_lu_255 (ReLU)               (None, 8, 8, 400)    0           ['add_100[0][0]']                
                                                                                                  
 conv2d_256 (Conv2D)            (None, 8, 8, 200)    40200       ['re_lu_255[0][0]']              
                                                                                                  
 batch_normalization_380 (Batch  (None, 8, 8, 200)   800         ['conv2d_256[0][0]']             
 Normalization)                                                                                   
                                                                                                  
 re_lu_256 (ReLU)               (None, 8, 8, 200)    0           ['batch_normalization_380[0][0]']
                                                                                                  
 reshape_248 (Reshape)          (None, 8, 8, 100, 2  0           ['re_lu_256[0][0]']              
                                )                                                                 
                                                                                                  
 permute_124 (Permute)          (None, 8, 8, 2, 100  0           ['reshape_248[0][0]']            
                                )                                                                 
                                                                                                  
 reshape_249 (Reshape)          (None, 8, 8, 200)    0           ['permute_124[0][0]']            
                                                                                                  
 depthwise_conv2d_124 (Depthwis  (None, 4, 4, 200)   2000        ['reshape_249[0][0]']            
 eConv2D)                                                                                         
                                                                                                  
 batch_normalization_381 (Batch  (None, 4, 4, 200)   800         ['depthwise_conv2d_124[0][0]']   
 Normalization)                                                                                   
                                                                                                  
 conv2d_257 (Conv2D)            (None, 4, 4, 400)    40400       ['batch_normalization_381[0][0]']
                                                                                                  
 batch_normalization_382 (Batch  (None, 4, 4, 400)   1600        ['conv2d_257[0][0]']             
 Normalization)                                                                                   
                                                                                                  
 average_pooling2d_23 (AverageP  (None, 4, 4, 400)   0           ['re_lu_255[0][0]']              
 ooling2D)                                                                                        
                                                                                                  
 concatenate_23 (Concatenate)   (None, 4, 4, 800)    0           ['batch_normalization_382[0][0]',
                                                                  'average_pooling2d_23[0][0]']   
                                                                                                  
 re_lu_257 (ReLU)               (None, 4, 4, 800)    0           ['concatenate_23[0][0]']         
                                                                                                  
 conv2d_258 (Conv2D)            (None, 4, 4, 200)    80200       ['re_lu_257[0][0]']              
                                                                                                  
 batch_normalization_383 (Batch  (None, 4, 4, 200)   800         ['conv2d_258[0][0]']             
 Normalization)                                                                                   
                                                                                                  
 re_lu_258 (ReLU)               (None, 4, 4, 200)    0           ['batch_normalization_383[0][0]']
                                                                                                  
 reshape_250 (Reshape)          (None, 4, 4, 100, 2  0           ['re_lu_258[0][0]']              
                                )                                                                 
                                                                                                  
 permute_125 (Permute)          (None, 4, 4, 2, 100  0           ['reshape_250[0][0]']            
                                )                                                                 
                                                                                                  
 reshape_251 (Reshape)          (None, 4, 4, 200)    0           ['permute_125[0][0]']            
                                                                                                  
 depthwise_conv2d_125 (Depthwis  (None, 4, 4, 200)   2000        ['reshape_251[0][0]']            
 eConv2D)                                                                                         
                                                                                                  
 batch_normalization_384 (Batch  (None, 4, 4, 200)   800         ['depthwise_conv2d_125[0][0]']   
 Normalization)                                                                                   
                                                                                                  
 conv2d_259 (Conv2D)            (None, 4, 4, 800)    80800       ['batch_normalization_384[0][0]']
                                                                                                  
 batch_normalization_385 (Batch  (None, 4, 4, 800)   3200        ['conv2d_259[0][0]']             
 Normalization)                                                                                   
                                                                                                  
 add_101 (Add)                  (None, 4, 4, 800)    0           ['batch_normalization_385[0][0]',
                                                                  're_lu_257[0][0]']              
                                                                                                  
 re_lu_259 (ReLU)               (None, 4, 4, 800)    0           ['add_101[0][0]']                
                                                                                                  
 conv2d_260 (Conv2D)            (None, 4, 4, 200)    80200       ['re_lu_259[0][0]']              
                                                                                                  
 batch_normalization_386 (Batch  (None, 4, 4, 200)   800         ['conv2d_260[0][0]']             
 Normalization)                                                                                   
                                                                                                  
 re_lu_260 (ReLU)               (None, 4, 4, 200)    0           ['batch_normalization_386[0][0]']
                                                                                                  
 reshape_252 (Reshape)          (None, 4, 4, 100, 2  0           ['re_lu_260[0][0]']              
                                )                                                                 
                                                                                                  
 permute_126 (Permute)          (None, 4, 4, 2, 100  0           ['reshape_252[0][0]']            
                                )                                                                 
                                                                                                  
 reshape_253 (Reshape)          (None, 4, 4, 200)    0           ['permute_126[0][0]']            
                                                                                                  
 depthwise_conv2d_126 (Depthwis  (None, 4, 4, 200)   2000        ['reshape_253[0][0]']            
 eConv2D)                                                                                         
                                                                                                  
 batch_normalization_387 (Batch  (None, 4, 4, 200)   800         ['depthwise_conv2d_126[0][0]']   
 Normalization)                                                                                   
                                                                                                  
 conv2d_261 (Conv2D)            (None, 4, 4, 800)    80800       ['batch_normalization_387[0][0]']
                                                                                                  
 batch_normalization_388 (Batch  (None, 4, 4, 800)   3200        ['conv2d_261[0][0]']             
 Normalization)                                                                                   
                                                                                                  
 add_102 (Add)                  (None, 4, 4, 800)    0           ['batch_normalization_388[0][0]',
                                                                  're_lu_259[0][0]']              
                                                                                                  
 re_lu_261 (ReLU)               (None, 4, 4, 800)    0           ['add_102[0][0]']                
                                                                                                  
 conv2d_262 (Conv2D)            (None, 4, 4, 200)    80200       ['re_lu_261[0][0]']              
                                                                                                  
 batch_normalization_389 (Batch  (None, 4, 4, 200)   800         ['conv2d_262[0][0]']             
 Normalization)                                                                                   
                                                                                                  
 re_lu_262 (ReLU)               (None, 4, 4, 200)    0           ['batch_normalization_389[0][0]']
                                                                                                  
 reshape_254 (Reshape)          (None, 4, 4, 100, 2  0           ['re_lu_262[0][0]']              
                                )                                                                 
                                                                                                  
 permute_127 (Permute)          (None, 4, 4, 2, 100  0           ['reshape_254[0][0]']            
                                )                                                                 
                                                                                                  
 reshape_255 (Reshape)          (None, 4, 4, 200)    0           ['permute_127[0][0]']            
                                                                                                  
 depthwise_conv2d_127 (Depthwis  (None, 4, 4, 200)   2000        ['reshape_255[0][0]']            
 eConv2D)                                                                                         
                                                                                                  
 batch_normalization_390 (Batch  (None, 4, 4, 200)   800         ['depthwise_conv2d_127[0][0]']   
 Normalization)                                                                                   
                                                                                                  
 conv2d_263 (Conv2D)            (None, 4, 4, 800)    80800       ['batch_normalization_390[0][0]']
                                                                                                  
 batch_normalization_391 (Batch  (None, 4, 4, 800)   3200        ['conv2d_263[0][0]']             
 Normalization)                                                                                   
                                                                                                  
 add_103 (Add)                  (None, 4, 4, 800)    0           ['batch_normalization_391[0][0]',
                                                                  're_lu_261[0][0]']              
                                                                                                  
 re_lu_263 (ReLU)               (None, 4, 4, 800)    0           ['add_103[0][0]']                
                                                                                                  
 global_average_pooling2d_7 (Gl  (None, 800)         0           ['re_lu_263[0][0]']              
 obalAveragePooling2D)                                                                            
                                                                                                  
 flatten_7 (Flatten)            (None, 800)          0           ['global_average_pooling2d_7[0][0
                                                                 ]']                              
                                                                                                  
 dense_22 (Dense)               (None, 512)          410112      ['flatten_7[0][0]']              
                                                                                                  
 dense_23 (Dense)               (None, 3)            1539        ['dense_22[0][0]']               
                                                                                                  
==================================================================================================
Total params: 1,374,499
Trainable params: 1,354,099
Non-trainable params: 20,400
__________________________________________________________________________________________________
…
